practical_archive_ws2026/pinet5_steps_viz.pt (torch, 31825 bytes, 20 tensors)

trajectory f8 [101, 1, 2]
00000000: 0000 0000 0000 0000 0000 0000 0000 0000
00000010: 89ed 7259 3e02 b73f 8243 66a3 fce7 cb3f
00000020: d551 78bb 4edf cc3f 3fb0 543d 11f8 e13f
00000030: 594d a384 6265 d63f 7193 2b33 dbbf ec3f
00000040: 60d6 05ae 0626 dc3f 9b80 bc4b 732b f23f
00000050: e386 ff0e 0389 df3f afa8 39e3 bc9d f33f
00000060: 55f1 0c62 d988 e03f 9134 758b 4321 f33f
00000070: 21c8 f627 c2b8 e03f 0ead 8a2d 8dba f13f
00000080: 878b d3bf f59f e03f 03c7 0f4e 4c59 f03f
00000090: b42e 2dc7 6e70 e03f 3661 5fa5 cb02 ef3f
000000a0: 0f45 0bb0 e143 e03f a1ef cddb ea8c ee3f
000000b0: 7adf f0c0 3823 e03f 94a2 bd67 5cec ee3f
000000c0: 388b 0f1f 840e e03f 357b fd23 0597 ef3f
000000d0: c619 0190 b402 e03f 26d3 1a2c 4012 f03f
000000e0: 6151 459f 48f9 df3f 18cc 5f7c fa33 f03f
000000f0: ce79 7ccc 31f4 df3f 5a56 dceb 5d33 f03f
00000100: 1ee5 5126 69f3 df3f fcf1 0b42 b41f f03f
00000110: ee04 5260 32f5 df3f dd0b b711 1209 f03f
00000120: 84bb 8fc2 42f8 df3f 32a4 3ce1 1ef3 ef3f
00000130: 3b9f b494 8ffb df3f 18e9 1748 e7e7 ef3f
00000140: ba22 a148 57fe df3f 6ec5 574c c7eb ef3f
00000150: 5873 411f 1a00 e03f 5b51 8a85 3ef6 ef3f
00000160: bdeb d7a2 8d00 e03f e983 6f38 0900 f03f
00000170: 9c3b 4bfe a000 e03f 2a85 17b9 ca02 f03f
00000180: 5ced c0c8 7c00 e03f 500b bc8b 3f03 f03f
00000190: ba60 b5c4 4600 e03f b69f 2731 3f02 f03f
000001a0: 4cc9 8730 1800 e03f 3937 4416 d500 f03f
000001b0: 1a36 408a f7ff df3f 3422 ef4a 7dff ef3f
000001c0: 4378 9a34 e2ff df3f 2a5d e33d 86fe ef3f
000001d0: b649 b83b e4ff df3f 38be b614 99fe ef3f
000001e0: cf2e 58cb efff df3f 1770 f0d7 34ff ef3f
000001f0: fdd1 6704 fbff df3f 39ba e8ee dcff ef3f
00000200: e52d 63c1 0000 e03f 1b3b 6b39 2400 f03f
00000210: 5239 8f94 0100 e03f 83c1 00d4 3300 f03f
00000220: ec6c 20f8 0000 e03f 3928 a32b 2800 f03f
00000230: dcd8 3002 0000 e03f 2be7 ae15 1200 f03f
00000240: 944a 99c1 feff df3f aad0 08f0 fdff ef3f
00000250: e616 1987 feff df3f 7ed5 6706 eaff ef3f
00000260: 5561 c009 ffff df3f f5be abfb e7ff ef3f
00000270: 56f0 9dc6 ffff df3f d379 cc7f f0ff ef3f
00000280: f55b 6d2b 0000 e03f 0343 4864 fbff ef3f
00000290: fe5a 4f48 0000 e03f b7f4 219f 0100 f03f
000002a0: f8d6 793f 0000 e03f ad82 0d26 0300 f03f
000002b0: 3425 6b23 0000 e03f e35f dcbf 0200 f03f
000002c0: 9345 9706 0000 e03f d659 e572 0100 f03f
000002d0: b849 0fe8 ffff df3f 98d3 ce2a 0000 f03f
000002e0: bc2b 50dc ffff df3f aac3 1ace feff ef3f
000002f0: f068 10e3 ffff df3f b2de 4e72 feff ef3f
00000300: 7eb0 75f1 ffff df3f f3c6 c2de feff ef3f
00000310: 5b75 97fe ffff df3f 014b a68d ffff ef3f
00000320: e0d1 0603 0000 e03f b2f0 ae0d 0000 f03f
00000330: 08ce ce03 0000 e03f 9484 442f 0000 f03f
00000340: b6bc b602 0000 e03f 6998 0b2f 0000 f03f
00000350: 011f 0d01 0000 e03f 59d3 571c 0000 f03f
00000360: b040 7dff ffff df3f ec75 e706 0000 f03f
00000370: c6d3 4cfe ffff df3f 6c54 e7f0 ffff ef3f
00000380: c44e 5afe ffff df3f e1b2 19e7 ffff ef3f
00000390: 7bbe 0dff ffff df3f eae8 a3eb ffff ef3f
000003a0: dc90 d2ff ffff df3f aa08 3bf6 ffff ef3f
000003b0: 339d 2800 0000 e03f 10d3 edff ffff ef3f
000003c0: 5225 3b00 0000 e03f 139c a402 0000 f03f
000003d0: 3e95 2d00 0000 e03f 4635 1103 0000 f03f
000003e0: d3c7 1300 0000 e03f 7c09 1602 0000 f03f
000003f0: 321c fbff ffff df3f d50a b900 0000 f03f
00000400: db5c e4ff ffff df3f 8e62 61ff ffff ef3f
00000410: 65ac e2ff ffff df3f 0cfa 7efe ffff ef3f
00000420: 9d4c edff ffff df3f 7fee 9bfe ffff ef3f
00000430: 2886 faff ffff df3f b647 39ff ffff ef3f
00000440: ccfa 0100 0000 e03f 4686 deff ffff ef3f
00000450: f2ca 0300 0000 e03f 1f40 2300 0000 f03f
00000460: 424b 0300 0000 e03f 7ace 3100 0000 f03f
00000470: 0ab9 0100 0000 e03f 9e0e 2600 0000 f03f
00000480: 032f 0000 0000 e03f 238a 1000 0000 f03f
00000490: 258a feff ffff df3f b164 fcff ffff ef3f
000004a0: 651e feff ffff df3f 4cbb e9ff ffff ef3f
000004b0: 48a2 feff ffff df3f e258 e8ff ffff ef3f
000004c0: fc74 ffff ffff df3f a4fa f0ff ffff ef3f
000004d0: a30f 0000 0000 e03f d4ac fbff ffff ef3f
000004e0: f937 0000 0000 e03f 0ca1 0100 0000 f03f
000004f0: c837 0000 0000 e03f 1210 0300 0000 f03f
00000500: 7e21 0000 0000 e03f 84a2 0200 0000 f03f
00000510: f607 0000 0000 e03f 155b 0100 0000 f03f
00000520: 9aed ffff ffff df3f 0a1e 0000 0000 f03f
00000530: 17e2 ffff ffff df3f d4c8 feff ffff ef3f
00000540: a6e7 ffff ffff df3f da78 feff ffff ef3f
00000550: 5ff4 ffff ffff df3f 40e8 feff ffff ef3f
00000560: f7ff ffff ffff df3f 5894 ffff ffff ef3f
00000570: 2b03 0000 0000 e03f b60e 0000 0000 f03f
00000580: a903 0000 0000 e03f 762e 0000 0000 f03f
00000590: 7a02 0000 0000 e03f 732d 0000 0000 f03f
000005a0: d800 0000 0000 e03f de1a 0000 0000 f03f
000005b0: 3bff ffff ffff df3f 0906 0000 0000 f03f
000005c0: 2ffe ffff ffff df3f 72f0 ffff ffff ef3f
000005d0: 53fe ffff ffff df3f 7be7 ffff ffff ef3f
000005e0: 11ff ffff ffff df3f 4aec ffff ffff ef3f
000005f0: d7ff ffff ffff df3f bff6 ffff ffff ef3f
00000600: 2900 0000 0000 e03f 1400 0000 0000 f03f
00000610: 3b00 0000 0000 e03f a002 0000 0000 f03f
00000620: 2e00 0000 0000 e03f fb02 0000 0000 f03f
00000630: 1300 0000 0000 e03f ff01 0000 0000 f03f
00000640: faff ffff ffff df3f aa00 0000 0000 f03f
0.0 0.0 0.08987798389255465 0.21801717737664822 0.22556480554398087 0.5615316579692332 0.3499380393306715 0.8984199523371058
0.43982092852033894 1.1356080015612295 0.4927375456301048 1.2260102153764298 0.5167052187967253 1.1956210563251128 0.5225535183474258 1.108044793984678
0.5195263620956759 1.0218012856752814 0.5137246980825325 0.9690912465985437 0.5082863272056403 0.9547018330626892 0.5042995231988094 0.9663526560007818
0.5017719847349786 0.9871850684101903 0.5003302395423865 1.0044557307093753 0.4995900683764117 1.012690053784132 0.4992794510780215 1.0125407422359758
0.49923161260774573 1.007740266794939 0.49934062391555656 1.0022144977563052 0.4995276355756959 0.9984278105886288 0.49972905656840155 0.9970585258554676
0.4998987397453153 0.9975315562316334 0.5000124559843284 0.9988091095170079 0.5000675373588518 1.0000087933078652 0.5000767676045714 1.0006816129828828
0.500059501740377 1.0007930239086882 0.5000337449992209 1.0005485458477614 0.5000115344867395 1.0002032155784504 0.49999798298890286 0.9999376739079424
0.4999928964333586 0.9998198708298436 0.49999337989825265 0.9998288540427387 0.49999613626344525 0.9999031274378493 0.4999988120100907 0.9999832788651651
0.500000360212138 1.0000345461773523 0.5000007535507314 1.0000494271626799 0.5000004621719234 1.0000383095343877 0.5000000040806998 1.0000172469139652
0.4999997034657693 0.9999990165874995 0.49999964898266425 0.9999895215138819 0.4999997706631992 0.9999885478445935 0.4999999465578687 0.9999926086491605
0.5000000808894344 0.9999978026044974 0.5000001346878375 1.0000015464895975 0.500000118233145 1.0000030027805835 0.5000000659721651 1.0000026220859517
0.5000000122765179 1.0000013816949056 0.4999999777038755 1.0000001594719148 0.4999999667640471 0.9999994302253203 0.49999997305134425 0.9999992592410847
0.499999986458313 0.999999461250097 0.49999999868835737 0.9999997870057485 0.5000000056375562 1.000000050974489 0.5000000070926385 1.0000001760857105
0.5000000050548781 1.0000001752573786 0.5000000019581138 1.0000001055861587 0.49999999952434404 1.0000000257199373 0.4999999984168507 0.9999999718808232
0.49999999846589227 0.9999999536208543 0.49999999911867804 0.9999999620770528 0.49999999983471155 0.9999999818030763 0.5000000002955062 0.9999999998677556
0.5000000004303422 1.0000000098459665 0.5000000003316598 1.0000000114262817 0.5000000001439225 1.0000000077712619 0.4999999999822108 1.00000000269272
0.49999999989945615 0.9999999988459238 0.4999999998933105 0.9999999971985871 0.49999999993196714 0.9999999974092616 0.4999999999800786 0.9999999985541226
0.500000000014404 0.9999999997564337 0.5000000000275959 1.000000000512962 0.5000000000239668 1.0000000007247807 0.5000000000125351 1.0000000005538037
0.5000000000013362 1.0000000002406828 0.4999999999946872 0.999999999973758 0.499999999993156 0.9999999998379763 0.4999999999950302 0.9999999998279032
0.49999999999802447 0.9999999998907083 0.5000000000004444 0.9999999999685323 0.5000000000015908 1.0000000000237064 0.5000000000015854 1.0000000000445692
0.5000000000009519 1.0000000000383418 0.5000000000002263 1.0000000000197293 0.49999999999973854 1.0000000000017075 0.49999999999957495 0.999999999991156
0.49999999999965394 0.9999999999888829 0.49999999999983474 0.999999999992049 0.4999999999999995 0.9999999999969402 0.50000000000009 1.0000000000008362
0.500000000000104 1.000000000002641 0.5000000000000704 1.0000000000025835 0.500000000000024 1.0000000000015272 0.49999999999998906 1.000000000000343
0.4999999999999742 0.9999999999995579 0.4999999999999762 0.9999999999993031 0.49999999999998673 0.9999999999994398 0.4999999999999977 0.999999999999737
0.5000000000000046 1.0000000000000044 0.5000000000000066 1.0000000000001492 0.5000000000000051 1.0000000000001694 0.5000000000000021 1.0000000000001135
0.49999999999999967 1.0000000000000377

unsafe_action f8 [1, 2]
00000000: 0000 0000 0000 e03f 0000 0000 0000 f83f
0.5 1.5

safe_set_A f8 [1, 9, 2]
00000000: 0000 0000 0000 f03f 0000 0000 0000 0000
00000010: 0000 0000 0000 0000 0000 0000 0000 f03f
00000020: 0000 0000 0000 f0bf 0000 0000 0000 0080
00000030: 0000 0000 0000 0080 0000 0000 0000 f0bf
00000040: 0000 0000 0000 f0bf 0000 0000 0000 0080
00000050: 0000 0000 0000 0080 0000 0000 0000 f0bf
00000060: 0000 0000 0000 f03f 0000 0000 0000 0000
00000070: 0000 0000 0000 0000 0000 0000 0000 f03f
00000080: 0000 0000 0000 0000 0000 0000 0000 0000
1.0 0.0 0.0 1.0 -1.0 -0.0 -0.0 -1.0
-1.0 -0.0 -0.0 -1.0 1.0 0.0 0.0 1.0
0.0 0.0

safe_set_b f8 [1, 9]
00000000: 5fcf 1336 c864 1f40 e3eb 158b e382 1e40
00000010: 5018 f6e4 9b4d 2040 0e0a 753a 8ebe 2040
00000020: 0000 0000 0000 f03f 0000 0000 0000 f03f
00000030: 0000 0000 0000 f03f 0000 0000 0000 f03f
00000040: 0000 0000 0000 f07f
7.848419995268926 7.627821133816698 8.151580004731073 8.372178866183301 1.0 1.0 1.0 1.0
inf

trajectory f8 [202, 1, 2]
00000000: 0000 0000 0000 0000 0000 0000 0000 0000
00000010: 89ed 7259 3e02 b73f 8243 66a3 fce7 cb3f
00000020: d551 78bb 4edf cc3f 3fb0 543d 11f8 e13f
00000030: 594d a384 6265 d63f 7193 2b33 dbbf ec3f
00000040: 60d6 05ae 0626 dc3f 9b80 bc4b 732b f23f
00000050: e386 ff0e 0389 df3f afa8 39e3 bc9d f33f
00000060: 55f1 0c62 d988 e03f 9134 758b 4321 f33f
00000070: 21c8 f627 c2b8 e03f 0ead 8a2d 8dba f13f
00000080: 878b d3bf f59f e03f 03c7 0f4e 4c59 f03f
00000090: b42e 2dc7 6e70 e03f 3661 5fa5 cb02 ef3f
000000a0: 0f45 0bb0 e143 e03f a1ef cddb ea8c ee3f
000000b0: 7adf f0c0 3823 e03f 94a2 bd67 5cec ee3f
000000c0: 388b 0f1f 840e e03f 357b fd23 0597 ef3f
000000d0: c619 0190 b402 e03f 26d3 1a2c 4012 f03f
000000e0: 6151 459f 48f9 df3f 18cc 5f7c fa33 f03f
000000f0: ce79 7ccc 31f4 df3f 5a56 dceb 5d33 f03f
00000100: 1ee5 5126 69f3 df3f fcf1 0b42 b41f f03f
00000110: ee04 5260 32f5 df3f dd0b b711 1209 f03f
00000120: 84bb 8fc2 42f8 df3f 32a4 3ce1 1ef3 ef3f
00000130: 3b9f b494 8ffb df3f 18e9 1748 e7e7 ef3f
00000140: ba22 a148 57fe df3f 6ec5 574c c7eb ef3f
00000150: 5873 411f 1a00 e03f 5b51 8a85 3ef6 ef3f
00000160: bdeb d7a2 8d00 e03f e983 6f38 0900 f03f
00000170: 9c3b 4bfe a000 e03f 2a85 17b9 ca02 f03f
00000180: 5ced c0c8 7c00 e03f 500b bc8b 3f03 f03f
00000190: ba60 b5c4 4600 e03f b69f 2731 3f02 f03f
000001a0: 4cc9 8730 1800 e03f 3937 4416 d500 f03f
000001b0: 1a36 408a f7ff df3f 3422 ef4a 7dff ef3f
000001c0: 4378 9a34 e2ff df3f 2a5d e33d 86fe ef3f
000001d0: b649 b83b e4ff df3f 38be b614 99fe ef3f
000001e0: cf2e 58cb efff df3f 1770 f0d7 34ff ef3f
000001f0: fdd1 6704 fbff df3f 39ba e8ee dcff ef3f
00000200: e52d 63c1 0000 e03f 1b3b 6b39 2400 f03f
00000210: 5239 8f94 0100 e03f 83c1 00d4 3300 f03f
00000220: ec6c 20f8 0000 e03f 3928 a32b 2800 f03f
00000230: dcd8 3002 0000 e03f 2be7 ae15 1200 f03f
00000240: 944a 99c1 feff df3f aad0 08f0 fdff ef3f
00000250: e616 1987 feff df3f 7ed5 6706 eaff ef3f
00000260: 5561 c009 ffff df3f f5be abfb e7ff ef3f
00000270: 56f0 9dc6 ffff df3f d379 cc7f f0ff ef3f
00000280: f55b 6d2b 0000 e03f 0343 4864 fbff ef3f
00000290: fe5a 4f48 0000 e03f b7f4 219f 0100 f03f
000002a0: f8d6 793f 0000 e03f ad82 0d26 0300 f03f
000002b0: 3425 6b23 0000 e03f e35f dcbf 0200 f03f
000002c0: 9345 9706 0000 e03f d659 e572 0100 f03f
000002d0: b849 0fe8 ffff df3f 98d3 ce2a 0000 f03f
000002e0: bc2b 50dc ffff df3f aac3 1ace feff ef3f
000002f0: f068 10e3 ffff df3f b2de 4e72 feff ef3f
00000300: 7eb0 75f1 ffff df3f f3c6 c2de feff ef3f
00000310: 5b75 97fe ffff df3f 014b a68d ffff ef3f
00000320: e0d1 0603 0000 e03f b2f0 ae0d 0000 f03f
00000330: 08ce ce03 0000 e03f 9484 442f 0000 f03f
00000340: b6bc b602 0000 e03f 6998 0b2f 0000 f03f
00000350: 011f 0d01 0000 e03f 59d3 571c 0000 f03f
00000360: b040 7dff ffff df3f ec75 e706 0000 f03f
00000370: c6d3 4cfe ffff df3f 6c54 e7f0 ffff ef3f
00000380: c44e 5afe ffff df3f e1b2 19e7 ffff ef3f
00000390: 7bbe 0dff ffff df3f eae8 a3eb ffff ef3f
000003a0: dc90 d2ff ffff df3f aa08 3bf6 ffff ef3f
000003b0: 339d 2800 0000 e03f 10d3 edff ffff ef3f
000003c0: 5225 3b00 0000 e03f 139c a402 0000 f03f
000003d0: 3e95 2d00 0000 e03f 4635 1103 0000 f03f
000003e0: d3c7 1300 0000 e03f 7c09 1602 0000 f03f
000003f0: 321c fbff ffff df3f d50a b900 0000 f03f
00000400: db5c e4ff ffff df3f 8e62 61ff ffff ef3f
00000410: 65ac e2ff ffff df3f 0cfa 7efe ffff ef3f
00000420: 9d4c edff ffff df3f 7fee 9bfe ffff ef3f
00000430: 2886 faff ffff df3f b647 39ff ffff ef3f
00000440: ccfa 0100 0000 e03f 4686 deff ffff ef3f
00000450: f2ca 0300 0000 e03f 1f40 2300 0000 f03f
00000460: 424b 0300 0000 e03f 7ace 3100 0000 f03f
00000470: 0ab9 0100 0000 e03f 9e0e 2600 0000 f03f
00000480: 032f 0000 0000 e03f 238a 1000 0000 f03f
00000490: 258a feff ffff df3f b164 fcff ffff ef3f
000004a0: 651e feff ffff df3f 4cbb e9ff ffff ef3f
000004b0: 48a2 feff ffff df3f e258 e8ff ffff ef3f
000004c0: fc74 ffff ffff df3f a4fa f0ff ffff ef3f
000004d0: a30f 0000 0000 e03f d4ac fbff ffff ef3f
000004e0: f937 0000 0000 e03f 0ca1 0100 0000 f03f
000004f0: c837 0000 0000 e03f 1210 0300 0000 f03f
00000500: 7e21 0000 0000 e03f 84a2 0200 0000 f03f
00000510: f607 0000 0000 e03f 155b 0100 0000 f03f
00000520: 9aed ffff ffff df3f 0a1e 0000 0000 f03f
00000530: 17e2 ffff ffff df3f d4c8 feff ffff ef3f
00000540: a6e7 ffff ffff df3f da78 feff ffff ef3f
00000550: 5ff4 ffff ffff df3f 40e8 feff ffff ef3f
00000560: f7ff ffff ffff df3f 5894 ffff ffff ef3f
00000570: 2b03 0000 0000 e03f b60e 0000 0000 f03f
00000580: a903 0000 0000 e03f 762e 0000 0000 f03f
00000590: 7a02 0000 0000 e03f 732d 0000 0000 f03f
000005a0: d800 0000 0000 e03f de1a 0000 0000 f03f
000005b0: 3bff ffff ffff df3f 0906 0000 0000 f03f
000005c0: 2ffe ffff ffff df3f 72f0 ffff ffff ef3f
000005d0: 53fe ffff ffff df3f 7be7 ffff ffff ef3f
000005e0: 11ff ffff ffff df3f 4aec ffff ffff ef3f
000005f0: d7ff ffff ffff df3f bff6 ffff ffff ef3f
00000600: 2900 0000 0000 e03f 1400 0000 0000 f03f
00000610: 3b00 0000 0000 e03f a002 0000 0000 f03f
00000620: 2e00 0000 0000 e03f fb02 0000 0000 f03f
00000630: 1300 0000 0000 e03f ff01 0000 0000 f03f
00000640: faff ffff ffff df3f aa00 0000 0000 f03f
00000650: 0000 0000 0000 0000 0000 0000 0000 0000
00000660: e25d 06ed 800e b73f d5f9 f8bb 2beb cb3f
00000670: cecb 1cfd fbec cc3f 1eee cae1 d7f9 e13f
00000680: a715 89e9 5f6e d63f 367b a8e0 30c2 ec3f
00000690: 9fc9 71f1 902e dc3f befa c2fa 502c f23f
000006a0: 253f cfe1 bc8e df3f dd44 b9de f39d f33f
000006b0: 9db9 fc1c d589 e03f da5a ba46 e520 f33f
000006c0: 9b40 d568 2bb8 e03f d6c8 bc91 eab9 f13f
000006d0: f189 776c 8b9e e03f ca1b 288c ba58 f03f
000006e0: 3543 f379 f36e e03f b980 ce35 2d02 ef3f
000006f0: 3daf f77a d342 e03f 2a7c 0db7 db8c ee3f
00000700: 3e9d c838 be22 e03f 1298 74a8 a9ec ee3f
00000710: f94a b2c0 810e e03f f0ac 0cc5 6a97 ef3f
00000720: 3a72 310d f202 e03f 21d2 8ed8 6512 f03f
00000730: 8986 69da d9f9 df3f 90b7 ea47 0934 f03f
00000740: 37b7 b565 99f4 df3f 7c70 6b65 5933 f03f
00000750: f388 d6e7 94f3 df3f 1966 ea64 a61f f03f
00000760: 5ef6 4c31 2ff5 df3f 0100 3889 0409 f03f
00000770: 9e25 b32a 29f8 df3f d920 e77c 0ff3 ef3f
00000780: f5d7 afe2 74fb df3f 66b8 e628 e5e7 ef3f
00000790: 9780 dde0 46fe df3f 51f5 d8df cdeb ef3f
000007a0: 0613 61f0 1700 e03f 0aa8 f781 47f6 ef3f
000007b0: d8c0 767a 8f00 e03f 8001 8e92 0c00 f03f
000007c0: f4b7 9129 a400 e03f 32b5 4c06 cc02 f03f
000007d0: 06c7 d34d 7f00 e03f 2bbb ae1a 3f03 f03f
000007e0: c10e 9ada 4700 e03f fc2c bde6 3d02 f03f
000007f0: 8846 fa03 1800 e03f f5a7 a2d1 d300 f03f
0.0 0.0 0.08987798389255465 0.21801717737664822 0.22556480554398087 0.5615316579692332 0.3499380393306715 0.8984199523371058
0.43982092852033894 1.1356080015612295 0.4927375456301048 1.2260102153764298 0.5167052187967253 1.1956210563251128 0.5225535183474258 1.108044793984678
0.5195263620956759 1.0218012856752814 0.5137246980825325 0.9690912465985437 0.5082863272056403 0.9547018330626892 0.5042995231988094 0.9663526560007818
0.5017719847349786 0.9871850684101903 0.5003302395423865 1.0044557307093753 0.4995900683764117 1.012690053784132 0.4992794510780215 1.0125407422359758
0.49923161260774573 1.007740266794939 0.49934062391555656 1.0022144977563052 0.4995276355756959 0.9984278105886288 0.49972905656840155 0.9970585258554676
0.4998987397453153 0.9975315562316334 0.5000124559843284 0.9988091095170079 0.5000675373588518 1.0000087933078652 0.5000767676045714 1.0006816129828828
0.500059501740377 1.0007930239086882 0.5000337449992209 1.0005485458477614 0.5000115344867395 1.0002032155784504 0.49999798298890286 0.9999376739079424
0.4999928964333586 0.9998198708298436 0.49999337989825265 0.9998288540427387 0.49999613626344525 0.9999031274378493 0.4999988120100907 0.9999832788651651
0.500000360212138 1.0000345461773523 0.5000007535507314 1.0000494271626799 0.5000004621719234 1.0000383095343877 0.5000000040806998 1.0000172469139652
0.4999997034657693 0.9999990165874995 0.49999964898266425 0.9999895215138819 0.4999997706631992 0.9999885478445935 0.4999999465578687 0.9999926086491605
0.5000000808894344 0.9999978026044974 0.5000001346878375 1.0000015464895975 0.500000118233145 1.0000030027805835 0.5000000659721651 1.0000026220859517
0.5000000122765179 1.0000013816949056 0.4999999777038755 1.0000001594719148 0.4999999667640471 0.9999994302253203 0.49999997305134425 0.9999992592410847
0.499999986458313 0.999999461250097 0.49999999868835737 0.9999997870057485 0.5000000056375562 1.000000050974489 0.5000000070926385 1.0000001760857105
0.5000000050548781 1.0000001752573786 0.5000000019581138 1.0000001055861587 0.49999999952434404 1.0000000257199373 0.4999999984168507 0.9999999718808232
0.49999999846589227 0.9999999536208543 0.49999999911867804 0.9999999620770528 0.49999999983471155 0.9999999818030763 0.5000000002955062 0.9999999998677556
0.5000000004303422 1.0000000098459665 0.5000000003316598 1.0000000114262817 0.5000000001439225 1.0000000077712619 0.4999999999822108 1.00000000269272
0.49999999989945615 0.9999999988459238 0.4999999998933105 0.9999999971985871 0.49999999993196714 0.9999999974092616 0.4999999999800786 0.9999999985541226
0.500000000014404 0.9999999997564337 0.5000000000275959 1.000000000512962 0.5000000000239668 1.0000000007247807 0.5000000000125351 1.0000000005538037
0.5000000000013362 1.0000000002406828 0.4999999999946872 0.999999999973758 0.499999999993156 0.9999999998379763 0.4999999999950302 0.9999999998279032
0.49999999999802447 0.9999999998907083 0.5000000000004444 0.9999999999685323 0.5000000000015908 1.0000000000237064 0.5000000000015854 1.0000000000445692
0.5000000000009519 1.0000000000383418 0.5000000000002263 1.0000000000197293 0.49999999999973854 1.0000000000017075 0.49999999999957495 0.999999999991156
0.49999999999965394 0.9999999999888829 0.49999999999983474 0.999999999992049 0.4999999999999995 0.9999999999969402 0.50000000000009 1.0000000000008362
0.500000000000104 1.000000000002641 0.5000000000000704 1.0000000000025835 0.500000000000024 1.0000000000015272 0.49999999999998906 1.000000000000343
0.4999999999999742 0.9999999999995579 0.4999999999999762 0.9999999999993031 0.49999999999998673 0.9999999999994398 0.4999999999999977 0.999999999999737
0.5000000000000046 1.0000000000000044 0.5000000000000066 1.0000000000001492 0.5000000000000051 1.0000000000001694 0.5000000000000021 1.0000000000001135
0.49999999999999967 1.0000000000000377 0.0 0.0 0.0900650576280593 0.21811434439037095 0.22598218783386276 0.5617484483731834
0.35048673444938533 0.8987049472669699 0.4403421743255879 1.1358194156052117 0.49308702518190933 1.2260626506943517 0.5168252531200782 1.1955311549005985
0.5224816367645134 1.1078897183293086 0.5193535917754258 1.0216622805471496 0.5135438329544743 0.9690156985198178 0.5081574823102312 0.9546946120498252
0.5042410954528476 0.9663894930024546 0.5017708552935282 0.9872335289595906 0.5003595597914405 1.004491659096978 0.49962469415013594 1.0127041634800413
0.4993041508922604 1.0125364267069292 0.4992420448344454 1.007727045251505 0.4993398648692614 1.002201591501944 0.4995215336790241 0.9984204711445513
0.49972269189254287 0.9970575140812457 0.4998948284101145 0.9975346920033791 0.500011414995783 0.9988133943963942 0.5000684158203752 1.0000119900506377
0.5000782787226385 1.000682854278534 0.5000607032836519 1.0007926027571539 0.5000342626157918 1.0005473149529385 0.5000114515007263 1.0002020062333916

unsafe_action f8 [1, 2]
00000000: 0000 0000 0000 e03f 0000 0000 0000 f83f
0.5 1.5

safe_set_A f8 [1, 9, 2]
00000000: 0000 0000 0000 f03f 0000 0000 0000 0000
00000010: 0000 0000 0000 0000 0000 0000 0000 f03f
00000020: 0000 0000 0000 f0bf 0000 0000 0000 0080
00000030: 0000 0000 0000 0080 0000 0000 0000 f0bf
00000040: 0000 0000 0000 f0bf 0000 0000 0000 0080
00000050: 0000 0000 0000 0080 0000 0000 0000 f0bf
00000060: 0000 0000 0000 f03f 0000 0000 0000 0000
00000070: 0000 0000 0000 0000 0000 0000 0000 f03f
00000080: 2758 8a5d d8b3 b4bf d496 f03d 2be5 ef3f
1.0 0.0 0.0 1.0 -1.0 -0.0 -0.0 -1.0
-1.0 -0.0 -0.0 -1.0 1.0 0.0 0.0 1.0
-0.0808692196245323 0.9967247209321735

safe_set_b f8 [1, 9]
00000000: d97f d0e0 685e 1f40 aeb0 8702 f5f8 1d40
00000010: 13c0 978f cb50 2040 a927 bc7e 8503 2140
00000020: 0000 0000 0000 f03f 0000 0000 0000 f03f
00000030: 0000 0000 0000 f03f 0000 0000 0000 f03f
00000040: d702 c133 765f f53f
7.842196953511995 7.493122138530607 8.157803046488004 8.506877861469393 1.0 1.0 1.0 1.0
1.3358060857428222

trajectory f8 [303, 1, 2]
00000000: 0000 0000 0000 0000 0000 0000 0000 0000
00000010: 89ed 7259 3e02 b73f 8243 66a3 fce7 cb3f
00000020: d551 78bb 4edf cc3f 3fb0 543d 11f8 e13f
00000030: 594d a384 6265 d63f 7193 2b33 dbbf ec3f
00000040: 60d6 05ae 0626 dc3f 9b80 bc4b 732b f23f
00000050: e386 ff0e 0389 df3f afa8 39e3 bc9d f33f
00000060: 55f1 0c62 d988 e03f 9134 758b 4321 f33f
00000070: 21c8 f627 c2b8 e03f 0ead 8a2d 8dba f13f
00000080: 878b d3bf f59f e03f 03c7 0f4e 4c59 f03f
00000090: b42e 2dc7 6e70 e03f 3661 5fa5 cb02 ef3f
000000a0: 0f45 0bb0 e143 e03f a1ef cddb ea8c ee3f
000000b0: 7adf f0c0 3823 e03f 94a2 bd67 5cec ee3f
000000c0: 388b 0f1f 840e e03f 357b fd23 0597 ef3f
000000d0: c619 0190 b402 e03f 26d3 1a2c 4012 f03f
000000e0: 6151 459f 48f9 df3f 18cc 5f7c fa33 f03f
000000f0: ce79 7ccc 31f4 df3f 5a56 dceb 5d33 f03f
00000100: 1ee5 5126 69f3 df3f fcf1 0b42 b41f f03f
00000110: ee04 5260 32f5 df3f dd0b b711 1209 f03f
00000120: 84bb 8fc2 42f8 df3f 32a4 3ce1 1ef3 ef3f
00000130: 3b9f b494 8ffb df3f 18e9 1748 e7e7 ef3f
00000140: ba22 a148 57fe df3f 6ec5 574c c7eb ef3f
00000150: 5873 411f 1a00 e03f 5b51 8a85 3ef6 ef3f
00000160: bdeb d7a2 8d00 e03f e983 6f38 0900 f03f
00000170: 9c3b 4bfe a000 e03f 2a85 17b9 ca02 f03f
00000180: 5ced c0c8 7c00 e03f 500b bc8b 3f03 f03f
00000190: ba60 b5c4 4600 e03f b69f 2731 3f02 f03f
000001a0: 4cc9 8730 1800 e03f 3937 4416 d500 f03f
000001b0: 1a36 408a f7ff df3f 3422 ef4a 7dff ef3f
000001c0: 4378 9a34 e2ff df3f 2a5d e33d 86fe ef3f
000001d0: b649 b83b e4ff df3f 38be b614 99fe ef3f
000001e0: cf2e 58cb efff df3f 1770 f0d7 34ff ef3f
000001f0: fdd1 6704 fbff df3f 39ba e8ee dcff ef3f
00000200: e52d 63c1 0000 e03f 1b3b 6b39 2400 f03f
00000210: 5239 8f94 0100 e03f 83c1 00d4 3300 f03f
00000220: ec6c 20f8 0000 e03f 3928 a32b 2800 f03f
00000230: dcd8 3002 0000 e03f 2be7 ae15 1200 f03f
00000240: 944a 99c1 feff df3f aad0 08f0 fdff ef3f
00000250: e616 1987 feff df3f 7ed5 6706 eaff ef3f
00000260: 5561 c009 ffff df3f f5be abfb e7ff ef3f
00000270: 56f0 9dc6 ffff df3f d379 cc7f f0ff ef3f
00000280: f55b 6d2b 0000 e03f 0343 4864 fbff ef3f
00000290: fe5a 4f48 0000 e03f b7f4 219f 0100 f03f
000002a0: f8d6 793f 0000 e03f ad82 0d26 0300 f03f
000002b0: 3425 6b23 0000 e03f e35f dcbf 0200 f03f
000002c0: 9345 9706 0000 e03f d659 e572 0100 f03f
000002d0: b849 0fe8 ffff df3f 98d3 ce2a 0000 f03f
000002e0: bc2b 50dc ffff df3f aac3 1ace feff ef3f
000002f0: f068 10e3 ffff df3f b2de 4e72 feff ef3f
00000300: 7eb0 75f1 ffff df3f f3c6 c2de feff ef3f
00000310: 5b75 97fe ffff df3f 014b a68d ffff ef3f
00000320: e0d1 0603 0000 e03f b2f0 ae0d 0000 f03f
00000330: 08ce ce03 0000 e03f 9484 442f 0000 f03f
00000340: b6bc b602 0000 e03f 6998 0b2f 0000 f03f
00000350: 011f 0d01 0000 e03f 59d3 571c 0000 f03f
00000360: b040 7dff ffff df3f ec75 e706 0000 f03f
00000370: c6d3 4cfe ffff df3f 6c54 e7f0 ffff ef3f
00000380: c44e 5afe ffff df3f e1b2 19e7 ffff ef3f
00000390: 7bbe 0dff ffff df3f eae8 a3eb ffff ef3f
000003a0: dc90 d2ff ffff df3f aa08 3bf6 ffff ef3f
000003b0: 339d 2800 0000 e03f 10d3 edff ffff ef3f
000003c0: 5225 3b00 0000 e03f 139c a402 0000 f03f
000003d0: 3e95 2d00 0000 e03f 4635 1103 0000 f03f
000003e0: d3c7 1300 0000 e03f 7c09 1602 0000 f03f
000003f0: 321c fbff ffff df3f d50a b900 0000 f03f
00000400: db5c e4ff ffff df3f 8e62 61ff ffff ef3f
00000410: 65ac e2ff ffff df3f 0cfa 7efe ffff ef3f
00000420: 9d4c edff ffff df3f 7fee 9bfe ffff ef3f
00000430: 2886 faff ffff df3f b647 39ff ffff ef3f
00000440: ccfa 0100 0000 e03f 4686 deff ffff ef3f
00000450: f2ca 0300 0000 e03f 1f40 2300 0000 f03f
00000460: 424b 0300 0000 e03f 7ace 3100 0000 f03f
00000470: 0ab9 0100 0000 e03f 9e0e 2600 0000 f03f
00000480: 032f 0000 0000 e03f 238a 1000 0000 f03f
00000490: 258a feff ffff df3f b164 fcff ffff ef3f
000004a0: 651e feff ffff df3f 4cbb e9ff ffff ef3f
000004b0: 48a2 feff ffff df3f e258 e8ff ffff ef3f
000004c0: fc74 ffff ffff df3f a4fa f0ff ffff ef3f
000004d0: a30f 0000 0000 e03f d4ac fbff ffff ef3f
000004e0: f937 0000 0000 e03f 0ca1 0100 0000 f03f
000004f0: c837 0000 0000 e03f 1210 0300 0000 f03f
00000500: 7e21 0000 0000 e03f 84a2 0200 0000 f03f
00000510: f607 0000 0000 e03f 155b 0100 0000 f03f
00000520: 9aed ffff ffff df3f 0a1e 0000 0000 f03f
00000530: 17e2 ffff ffff df3f d4c8 feff ffff ef3f
00000540: a6e7 ffff ffff df3f da78 feff ffff ef3f
00000550: 5ff4 ffff ffff df3f 40e8 feff ffff ef3f
00000560: f7ff ffff ffff df3f 5894 ffff ffff ef3f
00000570: 2b03 0000 0000 e03f b60e 0000 0000 f03f
00000580: a903 0000 0000 e03f 762e 0000 0000 f03f
00000590: 7a02 0000 0000 e03f 732d 0000 0000 f03f
000005a0: d800 0000 0000 e03f de1a 0000 0000 f03f
000005b0: 3bff ffff ffff df3f 0906 0000 0000 f03f
000005c0: 2ffe ffff ffff df3f 72f0 ffff ffff ef3f
000005d0: 53fe ffff ffff df3f 7be7 ffff ffff ef3f
000005e0: 11ff ffff ffff df3f 4aec ffff ffff ef3f
000005f0: d7ff ffff ffff df3f bff6 ffff ffff ef3f
00000600: 2900 0000 0000 e03f 1400 0000 0000 f03f
00000610: 3b00 0000 0000 e03f a002 0000 0000 f03f
00000620: 2e00 0000 0000 e03f fb02 0000 0000 f03f
00000630: 1300 0000 0000 e03f ff01 0000 0000 f03f
00000640: faff ffff ffff df3f aa00 0000 0000 f03f
00000650: 0000 0000 0000 0000 0000 0000 0000 0000
00000660: e25d 06ed 800e b73f d5f9 f8bb 2beb cb3f
00000670: cecb 1cfd fbec cc3f 1eee cae1 d7f9 e13f
00000680: a715 89e9 5f6e d63f 367b a8e0 30c2 ec3f
00000690: 9fc9 71f1 902e dc3f befa c2fa 502c f23f
000006a0: 253f cfe1 bc8e df3f dd44 b9de f39d f33f
000006b0: 9db9 fc1c d589 e03f da5a ba46 e520 f33f
000006c0: 9b40 d568 2bb8 e03f d6c8 bc91 eab9 f13f
000006d0: f189 776c 8b9e e03f ca1b 288c ba58 f03f
000006e0: 3543 f379 f36e e03f b980 ce35 2d02 ef3f
000006f0: 3daf f77a d342 e03f 2a7c 0db7 db8c ee3f
00000700: 3e9d c838 be22 e03f 1298 74a8 a9ec ee3f
00000710: f94a b2c0 810e e03f f0ac 0cc5 6a97 ef3f
00000720: 3a72 310d f202 e03f 21d2 8ed8 6512 f03f
00000730: 8986 69da d9f9 df3f 90b7 ea47 0934 f03f
00000740: 37b7 b565 99f4 df3f 7c70 6b65 5933 f03f
00000750: f388 d6e7 94f3 df3f 1966 ea64 a61f f03f
00000760: 5ef6 4c31 2ff5 df3f 0100 3889 0409 f03f
00000770: 9e25 b32a 29f8 df3f d920 e77c 0ff3 ef3f
00000780: f5d7 afe2 74fb df3f 66b8 e628 e5e7 ef3f
00000790: 9780 dde0 46fe df3f 51f5 d8df cdeb ef3f
000007a0: 0613 61f0 1700 e03f 0aa8 f781 47f6 ef3f
000007b0: d8c0 767a 8f00 e03f 8001 8e92 0c00 f03f
000007c0: f4b7 9129 a400 e03f 32b5 4c06 cc02 f03f
000007d0: 06c7 d34d 7f00 e03f 2bbb ae1a 3f03 f03f
000007e0: c10e 9ada 4700 e03f fc2c bde6 3d02 f03f
000007f0: 8846 fa03 1800 e03f f5a7 a2d1 d300 f03f
0.0 0.0 0.08987798389255465 0.21801717737664822 0.22556480554398087 0.5615316579692332 0.3499380393306715 0.8984199523371058
0.43982092852033894 1.1356080015612295 0.4927375456301048 1.2260102153764298 0.5167052187967253 1.1956210563251128 0.5225535183474258 1.108044793984678
0.5195263620956759 1.0218012856752814 0.5137246980825325 0.9690912465985437 0.5082863272056403 0.9547018330626892 0.5042995231988094 0.9663526560007818
0.5017719847349786 0.9871850684101903 0.5003302395423865 1.0044557307093753 0.4995900683764117 1.012690053784132 0.4992794510780215 1.0125407422359758
0.49923161260774573 1.007740266794939 0.49934062391555656 1.0022144977563052 0.4995276355756959 0.9984278105886288 0.49972905656840155 0.9970585258554676
0.4998987397453153 0.9975315562316334 0.5000124559843284 0.9988091095170079 0.5000675373588518 1.0000087933078652 0.5000767676045714 1.0006816129828828
0.500059501740377 1.0007930239086882 0.5000337449992209 1.0005485458477614 0.5000115344867395 1.0002032155784504 0.49999798298890286 0.9999376739079424
0.4999928964333586 0.9998198708298436 0.49999337989825265 0.9998288540427387 0.49999613626344525 0.9999031274378493 0.4999988120100907 0.9999832788651651
0.500000360212138 1.0000345461773523 0.5000007535507314 1.0000494271626799 0.5000004621719234 1.0000383095343877 0.5000000040806998 1.0000172469139652
0.4999997034657693 0.9999990165874995 0.49999964898266425 0.9999895215138819 0.4999997706631992 0.9999885478445935 0.4999999465578687 0.9999926086491605
0.5000000808894344 0.9999978026044974 0.5000001346878375 1.0000015464895975 0.500000118233145 1.0000030027805835 0.5000000659721651 1.0000026220859517
0.5000000122765179 1.0000013816949056 0.4999999777038755 1.0000001594719148 0.4999999667640471 0.9999994302253203 0.49999997305134425 0.9999992592410847
0.499999986458313 0.999999461250097 0.49999999868835737 0.9999997870057485 0.5000000056375562 1.000000050974489 0.5000000070926385 1.0000001760857105
0.5000000050548781 1.0000001752573786 0.5000000019581138 1.0000001055861587 0.49999999952434404 1.0000000257199373 0.4999999984168507 0.9999999718808232
0.49999999846589227 0.9999999536208543 0.49999999911867804 0.9999999620770528 0.49999999983471155 0.9999999818030763 0.5000000002955062 0.9999999998677556
0.5000000004303422 1.0000000098459665 0.5000000003316598 1.0000000114262817 0.5000000001439225 1.0000000077712619 0.4999999999822108 1.00000000269272
0.49999999989945615 0.9999999988459238 0.4999999998933105 0.9999999971985871 0.49999999993196714 0.9999999974092616 0.4999999999800786 0.9999999985541226
0.500000000014404 0.9999999997564337 0.5000000000275959 1.000000000512962 0.5000000000239668 1.0000000007247807 0.5000000000125351 1.0000000005538037
0.5000000000013362 1.0000000002406828 0.4999999999946872 0.999999999973758 0.499999999993156 0.9999999998379763 0.4999999999950302 0.9999999998279032
0.49999999999802447 0.9999999998907083 0.5000000000004444 0.9999999999685323 0.5000000000015908 1.0000000000237064 0.5000000000015854 1.0000000000445692
0.5000000000009519 1.0000000000383418 0.5000000000002263 1.0000000000197293 0.49999999999973854 1.0000000000017075 0.49999999999957495 0.999999999991156
0.49999999999965394 0.9999999999888829 0.49999999999983474 0.999999999992049 0.4999999999999995 0.9999999999969402 0.50000000000009 1.0000000000008362
0.500000000000104 1.000000000002641 0.5000000000000704 1.0000000000025835 0.500000000000024 1.0000000000015272 0.49999999999998906 1.000000000000343
0.4999999999999742 0.9999999999995579 0.4999999999999762 0.9999999999993031 0.49999999999998673 0.9999999999994398 0.4999999999999977 0.999999999999737
0.5000000000000046 1.0000000000000044 0.5000000000000066 1.0000000000001492 0.5000000000000051 1.0000000000001694 0.5000000000000021 1.0000000000001135
0.49999999999999967 1.0000000000000377 0.0 0.0 0.0900650576280593 0.21811434439037095 0.22598218783386276 0.5617484483731834
0.35048673444938533 0.8987049472669699 0.4403421743255879 1.1358194156052117 0.49308702518190933 1.2260626506943517 0.5168252531200782 1.1955311549005985
0.5224816367645134 1.1078897183293086 0.5193535917754258 1.0216622805471496 0.5135438329544743 0.9690156985198178 0.5081574823102312 0.9546946120498252
0.5042410954528476 0.9663894930024546 0.5017708552935282 0.9872335289595906 0.5003595597914405 1.004491659096978 0.49962469415013594 1.0127041634800413
0.4993041508922604 1.0125364267069292 0.4992420448344454 1.007727045251505 0.4993398648692614 1.002201591501944 0.4995215336790241 0.9984204711445513
0.49972269189254287 0.9970575140812457 0.4998948284101145 0.9975346920033791 0.500011414995783 0.9988133943963942 0.5000684158203752 1.0000119900506377
0.5000782787226385 1.000682854278534 0.5000607032836519 1.0007926027571539 0.5000342626157918 1.0005473149529385 0.5000114515007263 1.0002020062333916

unsafe_action f8 [1, 2]
00000000: 0000 0000 0000 e03f 0000 0000 0000 f83f
0.5 1.5

safe_set_A f8 [1, 9, 2]
00000000: 0000 0000 0000 f03f 0000 0000 0000 0000
00000010: 0000 0000 0000 0000 0000 0000 0000 f03f
00000020: 0000 0000 0000 f0bf 0000 0000 0000 0080
00000030: 0000 0000 0000 0080 0000 0000 0000 f0bf
00000040: 0000 0000 0000 f0bf 0000 0000 0000 0080
00000050: 0000 0000 0000 0080 0000 0000 0000 f0bf
00000060: 0000 0000 0000 f03f 0000 0000 0000 0000
00000070: 0000 0000 0000 0000 0000 0000 0000 f03f
00000080: bdc7 d33d c082 b6bf aebd 1687 44e0 ef3f
1.0 0.0 0.0 1.0 -1.0 -0.0 -0.0 -1.0
-1.0 -0.0 -0.0 -1.0 1.0 0.0 0.0 1.0
-0.08793260106520413 0.996126426549315

safe_set_b f8 [1, 9]
00000000: 99c3 6d95 2d4b 1f40 3fdb d6f8 12ac 1d40
00000010: 341e 4935 695a 2040 6092 9483 f629 2140
00000020: 0000 0000 0000 f03f 0000 0000 0000 f03f
00000030: 0000 0000 0000 f03f 0000 0000 0000 f03f
00000040: 4f89 aa5c fd58 f43f
7.82341607553908 7.4180411225450475 8.176583924460921 8.581958877454952 1.0 1.0 1.0 1.0
1.271725999810389

trajectory f8 [404, 1, 2]
00000000: 0000 0000 0000 0000 0000 0000 0000 0000
00000010: 89ed 7259 3e02 b73f 8243 66a3 fce7 cb3f
00000020: d551 78bb 4edf cc3f 3fb0 543d 11f8 e13f
00000030: 594d a384 6265 d63f 7193 2b33 dbbf ec3f
00000040: 60d6 05ae 0626 dc3f 9b80 bc4b 732b f23f
00000050: e386 ff0e 0389 df3f afa8 39e3 bc9d f33f
00000060: 55f1 0c62 d988 e03f 9134 758b 4321 f33f
00000070: 21c8 f627 c2b8 e03f 0ead 8a2d 8dba f13f
00000080: 878b d3bf f59f e03f 03c7 0f4e 4c59 f03f
00000090: b42e 2dc7 6e70 e03f 3661 5fa5 cb02 ef3f
000000a0: 0f45 0bb0 e143 e03f a1ef cddb ea8c ee3f
000000b0: 7adf f0c0 3823 e03f 94a2 bd67 5cec ee3f
000000c0: 388b 0f1f 840e e03f 357b fd23 0597 ef3f
000000d0: c619 0190 b402 e03f 26d3 1a2c 4012 f03f
000000e0: 6151 459f 48f9 df3f 18cc 5f7c fa33 f03f
000000f0: ce79 7ccc 31f4 df3f 5a56 dceb 5d33 f03f
00000100: 1ee5 5126 69f3 df3f fcf1 0b42 b41f f03f
00000110: ee04 5260 32f5 df3f dd0b b711 1209 f03f
00000120: 84bb 8fc2 42f8 df3f 32a4 3ce1 1ef3 ef3f
00000130: 3b9f b494 8ffb df3f 18e9 1748 e7e7 ef3f
00000140: ba22 a148 57fe df3f 6ec5 574c c7eb ef3f
00000150: 5873 411f 1a00 e03f 5b51 8a85 3ef6 ef3f
00000160: bdeb d7a2 8d00 e03f e983 6f38 0900 f03f
00000170: 9c3b 4bfe a000 e03f 2a85 17b9 ca02 f03f
00000180: 5ced c0c8 7c00 e03f 500b bc8b 3f03 f03f
00000190: ba60 b5c4 4600 e03f b69f 2731 3f02 f03f
000001a0: 4cc9 8730 1800 e03f 3937 4416 d500 f03f
000001b0: 1a36 408a f7ff df3f 3422 ef4a 7dff ef3f
000001c0: 4378 9a34 e2ff df3f 2a5d e33d 86fe ef3f
000001d0: b649 b83b e4ff df3f 38be b614 99fe ef3f
000001e0: cf2e 58cb efff df3f 1770 f0d7 34ff ef3f
000001f0: fdd1 6704 fbff df3f 39ba e8ee dcff ef3f
00000200: e52d 63c1 0000 e03f 1b3b 6b39 2400 f03f
00000210: 5239 8f94 0100 e03f 83c1 00d4 3300 f03f
00000220: ec6c 20f8 0000 e03f 3928 a32b 2800 f03f
00000230: dcd8 3002 0000 e03f 2be7 ae15 1200 f03f
00000240: 944a 99c1 feff df3f aad0 08f0 fdff ef3f
00000250: e616 1987 feff df3f 7ed5 6706 eaff ef3f
00000260: 5561 c009 ffff df3f f5be abfb e7ff ef3f
00000270: 56f0 9dc6 ffff df3f d379 cc7f f0ff ef3f
00000280: f55b 6d2b 0000 e03f 0343 4864 fbff ef3f
00000290: fe5a 4f48 0000 e03f b7f4 219f 0100 f03f
000002a0: f8d6 793f 0000 e03f ad82 0d26 0300 f03f
000002b0: 3425 6b23 0000 e03f e35f dcbf 0200 f03f
000002c0: 9345 9706 0000 e03f d659 e572 0100 f03f
000002d0: b849 0fe8 ffff df3f 98d3 ce2a 0000 f03f
000002e0: bc2b 50dc ffff df3f aac3 1ace feff ef3f
000002f0: f068 10e3 ffff df3f b2de 4e72 feff ef3f
00000300: 7eb0 75f1 ffff df3f f3c6 c2de feff ef3f
00000310: 5b75 97fe ffff df3f 014b a68d ffff ef3f
00000320: e0d1 0603 0000 e03f b2f0 ae0d 0000 f03f
00000330: 08ce ce03 0000 e03f 9484 442f 0000 f03f
00000340: b6bc b602 0000 e03f 6998 0b2f 0000 f03f
00000350: 011f 0d01 0000 e03f 59d3 571c 0000 f03f
00000360: b040 7dff ffff df3f ec75 e706 0000 f03f
00000370: c6d3 4cfe ffff df3f 6c54 e7f0 ffff ef3f
00000380: c44e 5afe ffff df3f e1b2 19e7 ffff ef3f
00000390: 7bbe 0dff ffff df3f eae8 a3eb ffff ef3f
000003a0: dc90 d2ff ffff df3f aa08 3bf6 ffff ef3f
000003b0: 339d 2800 0000 e03f 10d3 edff ffff ef3f
000003c0: 5225 3b00 0000 e03f 139c a402 0000 f03f
000003d0: 3e95 2d00 0000 e03f 4635 1103 0000 f03f
000003e0: d3c7 1300 0000 e03f 7c09 1602 0000 f03f
000003f0: 321c fbff ffff df3f d50a b900 0000 f03f
00000400: db5c e4ff ffff df3f 8e62 61ff ffff ef3f
00000410: 65ac e2ff ffff df3f 0cfa 7efe ffff ef3f
00000420: 9d4c edff ffff df3f 7fee 9bfe ffff ef3f
00000430: 2886 faff ffff df3f b647 39ff ffff ef3f
00000440: ccfa 0100 0000 e03f 4686 deff ffff ef3f
00000450: f2ca 0300 0000 e03f 1f40 2300 0000 f03f
00000460: 424b 0300 0000 e03f 7ace 3100 0000 f03f
00000470: 0ab9 0100 0000 e03f 9e0e 2600 0000 f03f
00000480: 032f 0000 0000 e03f 238a 1000 0000 f03f
00000490: 258a feff ffff df3f b164 fcff ffff ef3f
000004a0: 651e feff ffff df3f 4cbb e9ff ffff ef3f
000004b0: 48a2 feff ffff df3f e258 e8ff ffff ef3f
000004c0: fc74 ffff ffff df3f a4fa f0ff ffff ef3f
000004d0: a30f 0000 0000 e03f d4ac fbff ffff ef3f
000004e0: f937 0000 0000 e03f 0ca1 0100 0000 f03f
000004f0: c837 0000 0000 e03f 1210 0300 0000 f03f
00000500: 7e21 0000 0000 e03f 84a2 0200 0000 f03f
00000510: f607 0000 0000 e03f 155b 0100 0000 f03f
00000520: 9aed ffff ffff df3f 0a1e 0000 0000 f03f
00000530: 17e2 ffff ffff df3f d4c8 feff ffff ef3f
00000540: a6e7 ffff ffff df3f da78 feff ffff ef3f
00000550: 5ff4 ffff ffff df3f 40e8 feff ffff ef3f
00000560: f7ff ffff ffff df3f 5894 ffff ffff ef3f
00000570: 2b03 0000 0000 e03f b60e 0000 0000 f03f
00000580: a903 0000 0000 e03f 762e 0000 0000 f03f
00000590: 7a02 0000 0000 e03f 732d 0000 0000 f03f
000005a0: d800 0000 0000 e03f de1a 0000 0000 f03f
000005b0: 3bff ffff ffff df3f 0906 0000 0000 f03f
000005c0: 2ffe ffff ffff df3f 72f0 ffff ffff ef3f
000005d0: 53fe ffff ffff df3f 7be7 ffff ffff ef3f
000005e0: 11ff ffff ffff df3f 4aec ffff ffff ef3f
000005f0: d7ff ffff ffff df3f bff6 ffff ffff ef3f
00000600: 2900 0000 0000 e03f 1400 0000 0000 f03f
00000610: 3b00 0000 0000 e03f a002 0000 0000 f03f
00000620: 2e00 0000 0000 e03f fb02 0000 0000 f03f
00000630: 1300 0000 0000 e03f ff01 0000 0000 f03f
00000640: faff ffff ffff df3f aa00 0000 0000 f03f
00000650: 0000 0000 0000 0000 0000 0000 0000 0000
00000660: e25d 06ed 800e b73f d5f9 f8bb 2beb cb3f
00000670: cecb 1cfd fbec cc3f 1eee cae1 d7f9 e13f
00000680: a715 89e9 5f6e d63f 367b a8e0 30c2 ec3f
00000690: 9fc9 71f1 902e dc3f befa c2fa 502c f23f
000006a0: 253f cfe1 bc8e df3f dd44 b9de f39d f33f
000006b0: 9db9 fc1c d589 e03f da5a ba46 e520 f33f
000006c0: 9b40 d568 2bb8 e03f d6c8 bc91 eab9 f13f
000006d0: f189 776c 8b9e e03f ca1b 288c ba58 f03f
000006e0: 3543 f379 f36e e03f b980 ce35 2d02 ef3f
000006f0: 3daf f77a d342 e03f 2a7c 0db7 db8c ee3f
00000700: 3e9d c838 be22 e03f 1298 74a8 a9ec ee3f
00000710: f94a b2c0 810e e03f f0ac 0cc5 6a97 ef3f
00000720: 3a72 310d f202 e03f 21d2 8ed8 6512 f03f
00000730: 8986 69da d9f9 df3f 90b7 ea47 0934 f03f
00000740: 37b7 b565 99f4 df3f 7c70 6b65 5933 f03f
00000750: f388 d6e7 94f3 df3f 1966 ea64 a61f f03f
00000760: 5ef6 4c31 2ff5 df3f 0100 3889 0409 f03f
00000770: 9e25 b32a 29f8 df3f d920 e77c 0ff3 ef3f
00000780: f5d7 afe2 74fb df3f 66b8 e628 e5e7 ef3f
00000790: 9780 dde0 46fe df3f 51f5 d8df cdeb ef3f
000007a0: 0613 61f0 1700 e03f 0aa8 f781 47f6 ef3f
000007b0: d8c0 767a 8f00 e03f 8001 8e92 0c00 f03f
000007c0: f4b7 9129 a400 e03f 32b5 4c06 cc02 f03f
000007d0: 06c7 d34d 7f00 e03f 2bbb ae1a 3f03 f03f
000007e0: c10e 9ada 4700 e03f fc2c bde6 3d02 f03f
000007f0: 8846 fa03 1800 e03f f5a7 a2d1 d300 f03f
0.0 0.0 0.08987798389255465 0.21801717737664822 0.22556480554398087 0.5615316579692332 0.3499380393306715 0.8984199523371058
0.43982092852033894 1.1356080015612295 0.4927375456301048 1.2260102153764298 0.5167052187967253 1.1956210563251128 0.5225535183474258 1.108044793984678
0.5195263620956759 1.0218012856752814 0.5137246980825325 0.9690912465985437 0.5082863272056403 0.9547018330626892 0.5042995231988094 0.9663526560007818
0.5017719847349786 0.9871850684101903 0.5003302395423865 1.0044557307093753 0.4995900683764117 1.012690053784132 0.4992794510780215 1.0125407422359758
0.49923161260774573 1.007740266794939 0.49934062391555656 1.0022144977563052 0.4995276355756959 0.9984278105886288 0.49972905656840155 0.9970585258554676
0.4998987397453153 0.9975315562316334 0.5000124559843284 0.9988091095170079 0.5000675373588518 1.0000087933078652 0.5000767676045714 1.0006816129828828
0.500059501740377 1.0007930239086882 0.5000337449992209 1.0005485458477614 0.5000115344867395 1.0002032155784504 0.49999798298890286 0.9999376739079424
0.4999928964333586 0.9998198708298436 0.49999337989825265 0.9998288540427387 0.49999613626344525 0.9999031274378493 0.4999988120100907 0.9999832788651651
0.500000360212138 1.0000345461773523 0.5000007535507314 1.0000494271626799 0.5000004621719234 1.0000383095343877 0.5000000040806998 1.0000172469139652
0.4999997034657693 0.9999990165874995 0.49999964898266425 0.9999895215138819 0.4999997706631992 0.9999885478445935 0.4999999465578687 0.9999926086491605
0.5000000808894344 0.9999978026044974 0.5000001346878375 1.0000015464895975 0.500000118233145 1.0000030027805835 0.5000000659721651 1.0000026220859517
0.5000000122765179 1.0000013816949056 0.4999999777038755 1.0000001594719148 0.4999999667640471 0.9999994302253203 0.49999997305134425 0.9999992592410847
0.499999986458313 0.999999461250097 0.49999999868835737 0.9999997870057485 0.5000000056375562 1.000000050974489 0.5000000070926385 1.0000001760857105
0.5000000050548781 1.0000001752573786 0.5000000019581138 1.0000001055861587 0.49999999952434404 1.0000000257199373 0.4999999984168507 0.9999999718808232
0.49999999846589227 0.9999999536208543 0.49999999911867804 0.9999999620770528 0.49999999983471155 0.9999999818030763 0.5000000002955062 0.9999999998677556
0.5000000004303422 1.0000000098459665 0.5000000003316598 1.0000000114262817 0.5000000001439225 1.0000000077712619 0.4999999999822108 1.00000000269272
0.49999999989945615 0.9999999988459238 0.4999999998933105 0.9999999971985871 0.49999999993196714 0.9999999974092616 0.4999999999800786 0.9999999985541226
0.500000000014404 0.9999999997564337 0.5000000000275959 1.000000000512962 0.5000000000239668 1.0000000007247807 0.5000000000125351 1.0000000005538037
0.5000000000013362 1.0000000002406828 0.4999999999946872 0.999999999973758 0.499999999993156 0.9999999998379763 0.4999999999950302 0.9999999998279032
0.49999999999802447 0.9999999998907083 0.5000000000004444 0.9999999999685323 0.5000000000015908 1.0000000000237064 0.5000000000015854 1.0000000000445692
0.5000000000009519 1.0000000000383418 0.5000000000002263 1.0000000000197293 0.49999999999973854 1.0000000000017075 0.49999999999957495 0.999999999991156
0.49999999999965394 0.9999999999888829 0.49999999999983474 0.999999999992049 0.4999999999999995 0.9999999999969402 0.50000000000009 1.0000000000008362
0.500000000000104 1.000000000002641 0.5000000000000704 1.0000000000025835 0.500000000000024 1.0000000000015272 0.49999999999998906 1.000000000000343
0.4999999999999742 0.9999999999995579 0.4999999999999762 0.9999999999993031 0.49999999999998673 0.9999999999994398 0.4999999999999977 0.999999999999737
0.5000000000000046 1.0000000000000044 0.5000000000000066 1.0000000000001492 0.5000000000000051 1.0000000000001694 0.5000000000000021 1.0000000000001135
0.49999999999999967 1.0000000000000377 0.0 0.0 0.0900650576280593 0.21811434439037095 0.22598218783386276 0.5617484483731834
0.35048673444938533 0.8987049472669699 0.4403421743255879 1.1358194156052117 0.49308702518190933 1.2260626506943517 0.5168252531200782 1.1955311549005985
0.5224816367645134 1.1078897183293086 0.5193535917754258 1.0216622805471496 0.5135438329544743 0.9690156985198178 0.5081574823102312 0.9546946120498252
0.5042410954528476 0.9663894930024546 0.5017708552935282 0.9872335289595906 0.5003595597914405 1.004491659096978 0.49962469415013594 1.0127041634800413
0.4993041508922604 1.0125364267069292 0.4992420448344454 1.007727045251505 0.4993398648692614 1.002201591501944 0.4995215336790241 0.9984204711445513
0.49972269189254287 0.9970575140812457 0.4998948284101145 0.9975346920033791 0.500011414995783 0.9988133943963942 0.5000684158203752 1.0000119900506377
0.5000782787226385 1.000682854278534 0.5000607032836519 1.0007926027571539 0.5000342626157918 1.0005473149529385 0.5000114515007263 1.0002020062333916

unsafe_action f8 [1, 2]
00000000: 0000 0000 0000 e03f 0000 0000 0000 f83f
0.5 1.5

safe_set_A f8 [1, 9, 2]
00000000: 0000 0000 0000 f03f 0000 0000 0000 0000
00000010: 0000 0000 0000 0000 0000 0000 0000 f03f
00000020: 0000 0000 0000 f0bf 0000 0000 0000 0080
00000030: 0000 0000 0000 0080 0000 0000 0000 f0bf
00000040: 0000 0000 0000 f0bf 0000 0000 0000 0080
00000050: 0000 0000 0000 0080 0000 0000 0000 f0bf
00000060: 0000 0000 0000 f03f 0000 0000 0000 0000
00000070: 0000 0000 0000 0000 0000 0000 0000 f03f
00000080: 8696 24a9 9b0f babf 0880 d3e9 70d5 ef3f
1.0 0.0 0.0 1.0 -1.0 -0.0 -0.0 -1.0
-1.0 -0.0 -0.0 -1.0 1.0 0.0 0.0 1.0
-0.10180065993753304 0.9948048178594044

safe_set_b f8 [1, 9]
00000000: b8cf 1211 6f1e 1f40 5b1c aa8b 4177 1d40
00000010: 2498 7677 c870 2040 d3f1 2a3a 5f44 2140
00000020: 0000 0000 0000 f03f 0000 0000 0000 f03f
00000030: 0000 0000 0000 f03f 0000 0000 0000 f03f
00000040: 156f 1c12 b0ca f23f
7.779720560811192 7.366460973985421 8.220279439188808 8.63353902601458 1.0 1.0 1.0 1.0
1.1744843203986808
