practical_archive_ws2026/pinet5_steps_viz.pt (torch, 31825 bytes, 20 tensors)

trajectory f8 [101, 1, 2]
0	0x0000000000000000	0.0
1	0x0000000000000000	0.0
2	0x3fb62fc962fc9632	0.0866666666666667
3	0x3fd0a3d70a3d70a6	0.2600000000000001
4	0x3fcbf487fcb923a5	0.21840000000000007
5	0x3fe4f765fd8adaba	0.6552
6	0x3fd5cb10ab78a754	0.3405191111111112
7	0x3ff0584c809a7d7d	1.0215573333333332
8	0x3fdb92de815eb587	0.43083918222222234
9	0x3ff376613e97a3ae	1.2164013333333332
10	0x3fdf253516c297bb	0.48664595816296313
11	0x3ff39b9868154a85	1.225487143111111
12	0x3fe076d8d2de8a7d	0.5145076864758519
13	0x3ff222b7bdee78f4	1.1334760112
14	0x3fe0c1b60c3c3c14	0.5236463774652997
15	0x3ff086e4718eb4ca	1.032932704528593
16	0x3fe0b766ab8f0004	0.5223878241304196
17	0x3fef2f0329a3a758	0.974488812758163
18	0x3fe0897bb75f695c	0.5167826253412318
19	0x3feed235e508f18a	0.9631604646051966
20	0x3fe0560e13505e0f	0.5105047585702226
21	0x3fef53b1e3272ca8	0.9789666592199824
22	0x3fe02bc2ddcb5b0b	0.5053419429703764
23	0x3feffa4af4d90368	0.9993033201391031
24	0x3fe00f10c522780a	0.5018390512739199
25	0x3ff02deb5c88367f	1.0112107862982211
26	0x3fdffdc87fd0d115	0.4998646972847081
27	0x3ff033f93898d4fd	1.01268884762004
28	0x3fdfefe08d769589	0.4990159398533583
29	0x3ff020cbaf5a48ed	1.0080067491258504
30	0x3fdfed513dbbdf1f	0.49885970143030706
31	0x3ff009afe05855c8	1.0023649943808426
32	0x3fdff0631fc5e5d9	0.499047070530279
33	0x3feff68a54c66c8d	0.9988452583087494
34	0x3fdff545bbbd838f	0.499345239009977
35	0x3fefef55ad532038	0.9979656586883783
36	0x3fdff9dd7f2bbf9a	0.49962556284935433
37	0x3feff58b090f8a53	0.9987235238043674
38	0x3fdffd4afd78de9d	0.4998347735704359
39	0x3feffecbb372bcf3	0.9998529915664264
40	0x3fdfff6dece6b837	0.49996517310035266
41	0x3ff00256fcbd68b4	1.0005712387706298
42	0x3fe0004134668fb3	0.5000310920190628
43	0x3ff002e77b6ab5cb	1.0007090397806333
44	0x3fe00070135ee9f7	0.5000534418425663
45	0x3ff001f32c6444a0	1.0004760488557523
46	0x3fe0006bb1ca378e	0.5000513527354415
47	0x3ff000a9d0db30fe	1.000161949009509
48	0x3fe0005179eb7f6c	0.5000388509033491
49	0x3fefff9b82edffb3	0.9999520833225602
50	0x3fe0003370ea7567	0.5000245290172359
51	0x3fefff171849195e	0.9998889421774881
52	0x3fe0001a7959afea	0.5000126237987363
53	0x3fefff5fbb0ab382	0.9999235776100337
54	0x3fe0000963cf6ab2	0.5000044774454493
55	0x3fefffe2005fb912	0.9999856955817299
56	0x3fdfffff54efd8fb	0.4999998406850776
57	0x3ff0001de793e91d	1.0000285192496172
58	0x3fdffff6d24f33ec	0.49999781168008783
59	0x3ff000293eaf6bd9	1.0000393341676868
60	0x3fdffff5198ebb8f	0.4999974011979526
61	0x3ff0001d6fd9cbef	1.0000280732317568
62	0x3fdffff6ca0e4687	0.499997803993303
63	0x3ff0000b3fed8672	1.0000107285672155
64	0x3fdffff99dfc2d88	0.4999984782050082
65	0x3feffffc7ee3bbba	0.9999983290016339
66	0x3fdffffc5092acf5	0.49999912136509234
67	0x3feffff371e66e73	0.9999940132724546
68	0x3fdffffe58b347f3	0.49999960577144903
69	0x3feffff6856b0664	0.9999954801389319
70	0x3fdfffff9fb6c20d	0.49999991032658003
71	0x3feffffd9c501b38	0.9999988606440189
72	0x3fe0000023852c52	0.5000000661615422
73	0x3ff000017454ff28	1.0000013870448559
74	0x3fe0000040c63c5c	0.5000001206516447
75	0x3ff000024552815b	1.0000021655942735
76	0x3fe000003f34d5a5	0.5000001177310663
77	0x3ff00001b9027303	1.0000016428886631
78	0x3fe000003043feee	0.5000000899017019
79	0x3ff00000ba213e4f	1.0000006933877505
80	0x3fe000001ebc732e	0.5000000572505081
81	0x3fefffffee4590d9	0.9999999669785452
82	0x3fe000001000f8dc	0.5000000298093954
83	0x3fefffff553239da	0.9999996818531216
84	0x3fe0000005d63911	0.5000000108719026
85	0x3fefffff72180303	0.9999997356790974
86	0x3fdffffffffcde10	0.4999999999886038
87	0x3fefffffd3b8bce4	0.9999999175251131
88	0x3fdffffffac952df	0.49999999514447596
89	0x3ff00000117a7b4a	1.000000065112277
90	0x3fdffffff9a51709	0.49999999408133583
91	0x3ff000001fbfd2f5	1.0000001182754066
92	0x3fdffffffa918bae	0.49999999494155645
93	0x3ff00000199f2ba0	1.0000000954484918
94	0x3fdffffffc3429b5	0.4999999964644773
95	0x3ff000000bcc7bda	1.0000000439538241
96	0x3fdffffffdc9930f	0.49999999793935584
97	0x3ff0000000777f22	1.0000000017389046
98	0x3fdffffffefdc095	0.49999999906050024
99	0x3feffffff712b01a	0.999999983372166
100	0x3fdfffffffc12f9b	0.49999999977148385
101	0x3feffffff7ca1af3	0.999999984706703
102	0x3fe0000000132fc5	0.5000000001396009
103	0x3feffffffcf9096a	0.9999999943614004
104	0x3fe00000002564ed	0.5000000002720789
105	0x3ff0000000c77d8e	1.000000002902968
106	0x3fe000000025139a	0.5000000002697675
107	0x3ff0000001b81608	1.000000006404095
108	0x3fe00000001c949b	0.5000000002079504
109	0x3ff00000017a6c25	1.0000000055067713
110	0x3fe0000000125b55	0.500000000133563
111	0x3ff0000000bc77da	1.0000000027425728
112	0x3fe000000009aadc	0.5000000000703397
113	0x3ff0000000152cd8	1.0000000003081393
114	0x3fe0000000039e8e	0.5000000000263343
115	0x3fefffffff8aefb0	0.9999999991482493
116	0x3fe0000000001c43	0.5000000000008032
117	0x3fefffffff87a38b	0.9999999991242573
118	0x3fdffffffffd0bb5	0.49999999998925243
119	0x3fefffffffcd072f	0.9999999996291303
120	0x3fdffffffffc4c27	0.4999999999865303
121	0x3ff0000000082dcd	1.0000000001190188
122	0x3fdffffffffccc6d	0.49999999998835315
123	0x3ff0000000179acb	1.000000000343493
124	0x3fdffffffffdbe3b	0.4999999999917894
125	0x3ff000000015af44	1.000000000315553
126	0x3fdffffffffeac1a	0.49999999999516975
127	0x3ff00000000b9aca	1.0000000001688698
128	0x3fdfffffffff62a1	0.4999999999977636
129	0x3ff0000000020794	1.0000000000295346
130	0x3fdfffffffffd760	0.4999999999994227
131	0x3feffffffffa274b	0.999999999957461
132	0x3fe0000000000a42	0.5000000000002915
133	0x3feffffffff92d99	0.9999999999503643
134	0x3fe0000000001590	0.5000000000006128
135	0x3feffffffffcbdce	0.9999999999762907
136	0x3fe00000000015bd	0.5000000000006178
137	0x3ff00000000048ca	1.0000000000041376
138	0x3fe00000000010eb	0.5000000000004808
139	0x3ff00000000140ba	1.0000000000182312
140	0x3fe0000000000af6	0.5000000000003115
141	0x3ff0000000013bfb	1.0000000000179614
142	0x3fe00000000005d6	0.5000000000001659
143	0x3ff000000000b4d7	1.0000000000102796
144	0x3fe000000000023e	0.5000000000000637
145	0x3ff0000000002995	1.0000000000023637
146	0x3fe0000000000022	0.5000000000000038
147	0x3fefffffffffb7bc	0.9999999999979461
148	0x3fdffffffffffe55	0.4999999999999763
149	0x3fefffffffff9e0e	0.9999999999972162
150	0x3fdffffffffffdd9	0.4999999999999694
151	0x3fefffffffffcbd9	0.9999999999985177
152	0x3fdffffffffffe1c	0.49999999999997313
153	0x3ff0000000000185	1.0000000000000864
154	0x3fdffffffffffea8	0.4999999999999809
155	0x3ff00000000010d3	1.0000000000009563
156	0x3fdfffffffffff33	0.4999999999999886
157	0x3ff00000000011de	1.0000000000010156
158	0x3fdfffffffffffa0	0.49999999999999467
159	0x3ff0000000000ae6	1.0000000000006195
160	0x3fdfffffffffffe6	0.49999999999999856
161	0x3ff000000000030c	1.0000000000001732
162	0x3fe0000000000006	0.5000000000000007
163	0x3feffffffffffcae	0.9999999999999056
164	0x3fe000000000000d	0.5000000000000014
165	0x3feffffffffffa93	0.9999999999998458
166	0x3fe000000000000d	0.5000000000000014
167	0x3feffffffffffcce	0.9999999999999092
168	0x3fe000000000000b	0.5000000000000012
169	0x3fefffffffffffe2	0.9999999999999967
170	0x3fe0000000000008	0.5000000000000009
171	0x3ff00000000000df	1.0000000000000495
172	0x3fe0000000000004	0.5000000000000004
173	0x3ff0000000000102	1.0000000000000573
174	0x3fe0000000000002	0.5000000000000002
175	0x3ff00000000000a8	1.0000000000000373
176	0x3fe0000000000000	0.5
177	0x3ff0000000000037	1.0000000000000122
178	0x3fdfffffffffffff	0.49999999999999994
179	0x3fefffffffffffdc	0.999999999999996
180	0x3fdfffffffffffff	0.49999999999999994
181	0x3fefffffffffffb4	0.9999999999999916
182	0x3fdfffffffffffff	0.49999999999999994
183	0x3fefffffffffffcf	0.9999999999999946
184	0x3fe0000000000000	0.5
185	0x3feffffffffffffb	0.9999999999999994
186	0x3fe0000000000000	0.5
187	0x3ff000000000000d	1.0000000000000029
188	0x3fe0000000000000	0.5
189	0x3ff0000000000010	1.0000000000000036
190	0x3fe0000000000000	0.5
191	0x3ff000000000000b	1.0000000000000024
192	0x3fe0000000000000	0.5
193	0x3ff0000000000005	1.000000000000001
194	0x3fe0000000000000	0.5
195	0x3ff0000000000000	1.0
196	0x3fe0000000000000	0.5
197	0x3feffffffffffffe	0.9999999999999998
198	0x3fe0000000000000	0.5
199	0x3fefffffffffffff	0.9999999999999999
200	0x3fe0000000000000	0.5
201	0x3ff0000000000000	1.0

unsafe_action f8 [1, 2]
0	0x3fe0000000000000	0.5
1	0x3ff8000000000000	1.5

safe_set_A f8 [1, 9, 2]
0	0x3ff0000000000000	1.0
1	0x0000000000000000	0.0
2	0x0000000000000000	0.0
3	0x3ff0000000000000	1.0
4	0xbff0000000000000	-1.0
5	0x8000000000000000	-0.0
6	0x8000000000000000	-0.0
7	0xbff0000000000000	-1.0
8	0xbff0000000000000	-1.0
9	0x8000000000000000	-0.0
10	0x8000000000000000	-0.0
11	0xbff0000000000000	-1.0
12	0x3ff0000000000000	1.0
13	0x0000000000000000	0.0
14	0x0000000000000000	0.0
15	0x3ff0000000000000	1.0
16	0x0000000000000000	0.0
17	0x0000000000000000	0.0

safe_set_b f8 [1, 9]
0	0x402bfd2e0f9baaf6	13.994492042305392
1	0x4026fc0276bb291e	11.492206297251467
2	0x40000b47c1915426	2.005507957694607
3	0x401207fb1289adc3	4.507793702748532
4	0x3ff0000000000000	1.0
5	0x3ff0000000000000	1.0
6	0x3ff0000000000000	1.0
7	0x3ff0000000000000	1.0
8	0x7ff0000000000000	inf

trajectory f8 [202, 1, 2]
0	0x0000000000000000	0.0
1	0x0000000000000000	0.0
2	0x3fb62fc962fc9632	0.0866666666666667
3	0x3fd0a3d70a3d70a6	0.2600000000000001
4	0x3fcbf487fcb923a5	0.21840000000000007
5	0x3fe4f765fd8adaba	0.6552
6	0x3fd5cb10ab78a754	0.3405191111111112
7	0x3ff0584c809a7d7d	1.0215573333333332
8	0x3fdb92de815eb587	0.43083918222222234
9	0x3ff376613e97a3ae	1.2164013333333332
10	0x3fdf253516c297bb	0.48664595816296313
11	0x3ff39b9868154a85	1.225487143111111
12	0x3fe076d8d2de8a7d	0.5145076864758519
13	0x3ff222b7bdee78f4	1.1334760112
14	0x3fe0c1b60c3c3c14	0.5236463774652997
15	0x3ff086e4718eb4ca	1.032932704528593
16	0x3fe0b766ab8f0004	0.5223878241304196
17	0x3fef2f0329a3a758	0.974488812758163
18	0x3fe0897bb75f695c	0.5167826253412318
19	0x3feed235e508f18a	0.9631604646051966
20	0x3fe0560e13505e0f	0.5105047585702226
21	0x3fef53b1e3272ca8	0.9789666592199824
22	0x3fe02bc2ddcb5b0b	0.5053419429703764
23	0x3feffa4af4d90368	0.9993033201391031
24	0x3fe00f10c522780a	0.5018390512739199
25	0x3ff02deb5c88367f	1.0112107862982211
26	0x3fdffdc87fd0d115	0.4998646972847081
27	0x3ff033f93898d4fd	1.01268884762004
28	0x3fdfefe08d769589	0.4990159398533583
29	0x3ff020cbaf5a48ed	1.0080067491258504
30	0x3fdfed513dbbdf1f	0.49885970143030706
31	0x3ff009afe05855c8	1.0023649943808426
32	0x3fdff0631fc5e5d9	0.499047070530279
33	0x3feff68a54c66c8d	0.9988452583087494
34	0x3fdff545bbbd838f	0.499345239009977
35	0x3fefef55ad532038	0.9979656586883783
36	0x3fdff9dd7f2bbf9a	0.49962556284935433
37	0x3feff58b090f8a53	0.9987235238043674
38	0x3fdffd4afd78de9d	0.4998347735704359
39	0x3feffecbb372bcf3	0.9998529915664264
40	0x3fdfff6dece6b837	0.49996517310035266
41	0x3ff00256fcbd68b4	1.0005712387706298
42	0x3fe0004134668fb3	0.5000310920190628
43	0x3ff002e77b6ab5cb	1.0007090397806333
44	0x3fe00070135ee9f7	0.5000534418425663
45	0x3ff001f32c6444a0	1.0004760488557523
46	0x3fe0006bb1ca378e	0.5000513527354415
47	0x3ff000a9d0db30fe	1.000161949009509
48	0x3fe0005179eb7f6c	0.5000388509033491
49	0x3fefff9b82edffb3	0.9999520833225602
50	0x3fe0003370ea7567	0.5000245290172359
51	0x3fefff171849195e	0.9998889421774881
52	0x3fe0001a7959afea	0.5000126237987363
53	0x3fefff5fbb0ab382	0.9999235776100337
54	0x3fe0000963cf6ab2	0.5000044774454493
55	0x3fefffe2005fb912	0.9999856955817299
56	0x3fdfffff54efd8fb	0.4999998406850776
57	0x3ff0001de793e91d	1.0000285192496172
58	0x3fdffff6d24f33ec	0.49999781168008783
59	0x3ff000293eaf6bd9	1.0000393341676868
60	0x3fdffff5198ebb8f	0.4999974011979526
61	0x3ff0001d6fd9cbef	1.0000280732317568
62	0x3fdffff6ca0e4687	0.499997803993303
63	0x3ff0000b3fed8672	1.0000107285672155
64	0x3fdffff99dfc2d88	0.4999984782050082
65	0x3feffffc7ee3bbba	0.9999983290016339
66	0x3fdffffc5092acf5	0.49999912136509234
67	0x3feffff371e66e73	0.9999940132724546
68	0x3fdffffe58b347f3	0.49999960577144903
69	0x3feffff6856b0664	0.9999954801389319
70	0x3fdfffff9fb6c20d	0.49999991032658003
71	0x3feffffd9c501b38	0.9999988606440189
72	0x3fe0000023852c52	0.5000000661615422
73	0x3ff000017454ff28	1.0000013870448559
74	0x3fe0000040c63c5c	0.5000001206516447
75	0x3ff000024552815b	1.0000021655942735
76	0x3fe000003f34d5a5	0.5000001177310663
77	0x3ff00001b9027303	1.0000016428886631
78	0x3fe000003043feee	0.5000000899017019
79	0x3ff00000ba213e4f	1.0000006933877505
80	0x3fe000001ebc732e	0.5000000572505081
81	0x3fefffffee4590d9	0.9999999669785452
82	0x3fe000001000f8dc	0.5000000298093954
83	0x3fefffff553239da	0.9999996818531216
84	0x3fe0000005d63911	0.5000000108719026
85	0x3fefffff72180303	0.9999997356790974
86	0x3fdffffffffcde10	0.4999999999886038
87	0x3fefffffd3b8bce4	0.9999999175251131
88	0x3fdffffffac952df	0.49999999514447596
89	0x3ff00000117a7b4a	1.000000065112277
90	0x3fdffffff9a51709	0.49999999408133583
91	0x3ff000001fbfd2f5	1.0000001182754066
92	0x3fdffffffa918bae	0.49999999494155645
93	0x3ff00000199f2ba0	1.0000000954484918
94	0x3fdffffffc3429b5	0.4999999964644773
95	0x3ff000000bcc7bda	1.0000000439538241
96	0x3fdffffffdc9930f	0.49999999793935584
97	0x3ff0000000777f22	1.0000000017389046
98	0x3fdffffffefdc095	0.49999999906050024
99	0x3feffffff712b01a	0.999999983372166
100	0x3fdfffffffc12f9b	0.49999999977148385
101	0x3feffffff7ca1af3	0.999999984706703
102	0x3fe0000000132fc5	0.5000000001396009
103	0x3feffffffcf9096a	0.9999999943614004
104	0x3fe00000002564ed	0.5000000002720789
105	0x3ff0000000c77d8e	1.000000002902968
106	0x3fe000000025139a	0.5000000002697675
107	0x3ff0000001b81608	1.000000006404095
108	0x3fe00000001c949b	0.5000000002079504
109	0x3ff00000017a6c25	1.0000000055067713
110	0x3fe0000000125b55	0.500000000133563
111	0x3ff0000000bc77da	1.0000000027425728
112	0x3fe000000009aadc	0.5000000000703397
113	0x3ff0000000152cd8	1.0000000003081393
114	0x3fe0000000039e8e	0.5000000000263343
115	0x3fefffffff8aefb0	0.9999999991482493
116	0x3fe0000000001c43	0.5000000000008032
117	0x3fefffffff87a38b	0.9999999991242573
118	0x3fdffffffffd0bb5	0.49999999998925243
119	0x3fefffffffcd072f	0.9999999996291303
120	0x3fdffffffffc4c27	0.4999999999865303
121	0x3ff0000000082dcd	1.0000000001190188
122	0x3fdffffffffccc6d	0.49999999998835315
123	0x3ff0000000179acb	1.000000000343493
124	0x3fdffffffffdbe3b	0.4999999999917894
125	0x3ff000000015af44	1.000000000315553
126	0x3fdffffffffeac1a	0.49999999999516975
127	0x3ff00000000b9aca	1.0000000001688698
128	0x3fdfffffffff62a1	0.4999999999977636
129	0x3ff0000000020794	1.0000000000295346
130	0x3fdfffffffffd760	0.4999999999994227
131	0x3feffffffffa274b	0.999999999957461
132	0x3fe0000000000a42	0.5000000000002915
133	0x3feffffffff92d99	0.9999999999503643
134	0x3fe0000000001590	0.5000000000006128
135	0x3feffffffffcbdce	0.9999999999762907
136	0x3fe00000000015bd	0.5000000000006178
137	0x3ff00000000048ca	1.0000000000041376
138	0x3fe00000000010eb	0.5000000000004808
139	0x3ff00000000140ba	1.0000000000182312
140	0x3fe0000000000af6	0.5000000000003115
141	0x3ff0000000013bfb	1.0000000000179614
142	0x3fe00000000005d6	0.5000000000001659
143	0x3ff000000000b4d7	1.0000000000102796
144	0x3fe000000000023e	0.5000000000000637
145	0x3ff0000000002995	1.0000000000023637
146	0x3fe0000000000022	0.5000000000000038
147	0x3fefffffffffb7bc	0.9999999999979461
148	0x3fdffffffffffe55	0.4999999999999763
149	0x3fefffffffff9e0e	0.9999999999972162
150	0x3fdffffffffffdd9	0.4999999999999694
151	0x3fefffffffffcbd9	0.9999999999985177
152	0x3fdffffffffffe1c	0.49999999999997313
153	0x3ff0000000000185	1.0000000000000864
154	0x3fdffffffffffea8	0.4999999999999809
155	0x3ff00000000010d3	1.0000000000009563
156	0x3fdfffffffffff33	0.4999999999999886
157	0x3ff00000000011de	1.0000000000010156
158	0x3fdfffffffffffa0	0.49999999999999467
159	0x3ff0000000000ae6	1.0000000000006195
160	0x3fdfffffffffffe6	0.49999999999999856
161	0x3ff000000000030c	1.0000000000001732
162	0x3fe0000000000006	0.5000000000000007
163	0x3feffffffffffcae	0.9999999999999056
164	0x3fe000000000000d	0.5000000000000014
165	0x3feffffffffffa93	0.9999999999998458
166	0x3fe000000000000d	0.5000000000000014
167	0x3feffffffffffcce	0.9999999999999092
168	0x3fe000000000000b	0.5000000000000012
169	0x3fefffffffffffe2	0.9999999999999967
170	0x3fe0000000000008	0.5000000000000009
171	0x3ff00000000000df	1.0000000000000495
172	0x3fe0000000000004	0.5000000000000004
173	0x3ff0000000000102	1.0000000000000573
174	0x3fe0000000000002	0.5000000000000002
175	0x3ff00000000000a8	1.0000000000000373
176	0x3fe0000000000000	0.5
177	0x3ff0000000000037	1.0000000000000122
178	0x3fdfffffffffffff	0.49999999999999994
179	0x3fefffffffffffdc	0.999999999999996
180	0x3fdfffffffffffff	0.49999999999999994
181	0x3fefffffffffffb4	0.9999999999999916
182	0x3fdfffffffffffff	0.49999999999999994
183	0x3fefffffffffffcf	0.9999999999999946
184	0x3fe0000000000000	0.5
185	0x3feffffffffffffb	0.9999999999999994
186	0x3fe0000000000000	0.5
187	0x3ff000000000000d	1.0000000000000029
188	0x3fe0000000000000	0.5
189	0x3ff0000000000010	1.0000000000000036
190	0x3fe0000000000000	0.5
191	0x3ff000000000000b	1.0000000000000024
192	0x3fe0000000000000	0.5
193	0x3ff0000000000005	1.000000000000001
194	0x3fe0000000000000	0.5
195	0x3ff0000000000000	1.0
196	0x3fe0000000000000	0.5
197	0x3feffffffffffffe	0.9999999999999998
198	0x3fe0000000000000	0.5
199	0x3fefffffffffffff	0.9999999999999999
200	0x3fe0000000000000	0.5
201	0x3ff0000000000000	1.0
202	0x0000000000000000	0.0
203	0x0000000000000000	0.0
204	0xbfb919fa674d2667	-0.09805264493948017
205	0x3fbe7dd8e2909a2c	0.11910777598732442
206	0xbfcfa0bb8228e396	-0.24709266524749002
207	0x3fd335af099da8cf	0.30015159548805753
208	0xbfd8a8062d2644f4	-0.38525537881021354
209	0x3fddf36c6b960670	0.46798239237259676
210	0xbfdf323d6a43dcf1	-0.48744140031290245
211	0x3fe2f293035d4e16	0.5921111169540747
212	0xbfe19e59b4ddec8e	-0.5505798847729169
213	0x3fe566df034ff21b	0.6688075127308964
214	0xbfe2a0945c861270	-0.5821019942382701
215	0x3fe6a08cf16dc5ec	0.7070984568983341
216	0xbfe2f54772e94e7b	-0.5924412960398081
217	0x3fe707701a70846a	0.7196579471966633
218	0xbfe2e99d518e465a	-0.5910173981557805
219	0x3fe6f944c0a3ae3b	0.7179282915580595
220	0xbfe2b5aa09bab420	-0.5846758070016485
221	0x3fe6ba29adb48127	0.7102249519994402
222	0xbfe27b7abd336337	-0.5775731749846277
223	0x3fe6737bde571be2	0.7015971510489829
224	0xbfe24ba11659bf94	-0.5717320858511692
225	0x3fe6395bd02fef77	0.6945017877728635
226	0xbfe22b29e2a255a8	-0.5677689958999297
227	0x3fe611ebec29bc63	0.6896876919326015
228	0xbfe218dd65a6e7b7	-0.5655352578535177
229	0x3fe5fbb1853c7e0e	0.686974296786447
230	0xbfe210ff93a67055	-0.5645749934951804
231	0x3fe5f2234440a1d8	0.6858078320556684
232	0xbfe20f8cdfed8ffd	-0.5643982289880111
233	0x3fe5f060f66f8180	0.6855931103892061
234	0xbfe21149708613b5	-0.564610214016844
235	0x3fe5f27cfd7bd713	0.6858506155828955
236	0xbfe2140ce5052a11	-0.564947554879213
237	0x3fe5f5d85befde9a	0.686260394634661
238	0xbfe216a6029fe003	-0.5652647067317961
239	0x3fe5f9004c07f9a8	0.6866456494315587
240	0xbfe2189665e43253	-0.5655014028612392
241	0x3fe5fb5b468aa137	0.6869331720127211
242	0xbfe219cbcafc8cb8	-0.5656489338474762
243	0x3fe5fcd31b940777	0.6871123827588538
244	0xbfe21a683259b386	-0.5657235129743732
245	0x3fe5fd9118b63529	0.6872029764796582
246	0xbfe21a9d39b48de7	-0.5657487990433169
247	0x3fe5fdd183246c6d	0.6872336923000951
248	0xbfe21a9844c65ec1	-0.5657464354762497
249	0x3fe5fdcb7dbb119b	0.6872308211973633
250	0xbfe21a7a9b1f2a65	-0.5657322911950585
251	0x3fe5fda7757862ef	0.6872136396733292
252	0xbfe21a589ff64005	-0.5657160877472057
253	0x3fe5fd7e2e507da0	0.6871939568117575
254	0xbfe21a3c60b19c63	-0.5657026184607158
255	0x3fe5fd5bde4144b8	0.68717759522601

unsafe_action f8 [1, 2]
0	0x3fe0000000000000	0.5
1	0x3ff8000000000000	1.5

safe_set_A f8 [1, 9, 2]
0	0x3ff0000000000000	1.0
1	0x0000000000000000	0.0
2	0x0000000000000000	0.0
3	0x3ff0000000000000	1.0
4	0xbff0000000000000	-1.0
5	0x8000000000000000	-0.0
6	0x8000000000000000	-0.0
7	0xbff0000000000000	-1.0
8	0xbff0000000000000	-1.0
9	0x8000000000000000	-0.0
10	0x8000000000000000	-0.0
11	0xbff0000000000000	-1.0
12	0x3ff0000000000000	1.0
13	0x0000000000000000	0.0
14	0x0000000000000000	0.0
15	0x3ff0000000000000	1.0
16	0x0000000000000000	0.0
17	0x0000000000000000	0.0

safe_set_b f8 [1, 9]
0	0x402bfc7dceb258a6	13.993147334357058
1	0x4026c4f7c351cbc9	11.384702781424396
2	0x40000e08c5369d6a	2.006852665642943
3	0x40127610795c686e	4.615297218575604
4	0x3ff0000000000000	1.0
5	0x3ff0000000000000	1.0
6	0x3ff0000000000000	1.0
7	0x3ff0000000000000	1.0
8	0x7ff0000000000000	inf

trajectory f8 [303, 1, 2]
0	0x0000000000000000	0.0
1	0x0000000000000000	0.0
2	0x3fb62fc962fc9632	0.0866666666666667
3	0x3fd0a3d70a3d70a6	0.2600000000000001
4	0x3fcbf487fcb923a5	0.21840000000000007
5	0x3fe4f765fd8adaba	0.6552
6	0x3fd5cb10ab78a754	0.3405191111111112
7	0x3ff0584c809a7d7d	1.0215573333333332
8	0x3fdb92de815eb587	0.43083918222222234
9	0x3ff376613e97a3ae	1.2164013333333332
10	0x3fdf253516c297bb	0.48664595816296313
11	0x3ff39b9868154a85	1.225487143111111
12	0x3fe076d8d2de8a7d	0.5145076864758519
13	0x3ff222b7bdee78f4	1.1334760112
14	0x3fe0c1b60c3c3c14	0.5236463774652997
15	0x3ff086e4718eb4ca	1.032932704528593
16	0x3fe0b766ab8f0004	0.5223878241304196
17	0x3fef2f0329a3a758	0.974488812758163
18	0x3fe0897bb75f695c	0.5167826253412318
19	0x3feed235e508f18a	0.9631604646051966
20	0x3fe0560e13505e0f	0.5105047585702226
21	0x3fef53b1e3272ca8	0.9789666592199824
22	0x3fe02bc2ddcb5b0b	0.5053419429703764
23	0x3feffa4af4d90368	0.9993033201391031
24	0x3fe00f10c522780a	0.5018390512739199
25	0x3ff02deb5c88367f	1.0112107862982211
26	0x3fdffdc87fd0d115	0.4998646972847081
27	0x3ff033f93898d4fd	1.01268884762004
28	0x3fdfefe08d769589	0.4990159398533583
29	0x3ff020cbaf5a48ed	1.0080067491258504
30	0x3fdfed513dbbdf1f	0.49885970143030706
31	0x3ff009afe05855c8	1.0023649943808426
32	0x3fdff0631fc5e5d9	0.499047070530279
33	0x3feff68a54c66c8d	0.9988452583087494
34	0x3fdff545bbbd838f	0.499345239009977
35	0x3fefef55ad532038	0.9979656586883783
36	0x3fdff9dd7f2bbf9a	0.49962556284935433
37	0x3feff58b090f8a53	0.9987235238043674
38	0x3fdffd4afd78de9d	0.4998347735704359
39	0x3feffecbb372bcf3	0.9998529915664264
40	0x3fdfff6dece6b837	0.49996517310035266
41	0x3ff00256fcbd68b4	1.0005712387706298
42	0x3fe0004134668fb3	0.5000310920190628
43	0x3ff002e77b6ab5cb	1.0007090397806333
44	0x3fe00070135ee9f7	0.5000534418425663
45	0x3ff001f32c6444a0	1.0004760488557523
46	0x3fe0006bb1ca378e	0.5000513527354415
47	0x3ff000a9d0db30fe	1.000161949009509
48	0x3fe0005179eb7f6c	0.5000388509033491
49	0x3fefff9b82edffb3	0.9999520833225602
50	0x3fe0003370ea7567	0.5000245290172359
51	0x3fefff171849195e	0.9998889421774881
52	0x3fe0001a7959afea	0.5000126237987363
53	0x3fefff5fbb0ab382	0.9999235776100337
54	0x3fe0000963cf6ab2	0.5000044774454493
55	0x3fefffe2005fb912	0.9999856955817299
56	0x3fdfffff54efd8fb	0.4999998406850776
57	0x3ff0001de793e91d	1.0000285192496172
58	0x3fdffff6d24f33ec	0.49999781168008783
59	0x3ff000293eaf6bd9	1.0000393341676868
60	0x3fdffff5198ebb8f	0.4999974011979526
61	0x3ff0001d6fd9cbef	1.0000280732317568
62	0x3fdffff6ca0e4687	0.499997803993303
63	0x3ff0000b3fed8672	1.0000107285672155
64	0x3fdffff99dfc2d88	0.4999984782050082
65	0x3feffffc7ee3bbba	0.9999983290016339
66	0x3fdffffc5092acf5	0.49999912136509234
67	0x3feffff371e66e73	0.9999940132724546
68	0x3fdffffe58b347f3	0.49999960577144903
69	0x3feffff6856b0664	0.9999954801389319
70	0x3fdfffff9fb6c20d	0.49999991032658003
71	0x3feffffd9c501b38	0.9999988606440189
72	0x3fe0000023852c52	0.5000000661615422
73	0x3ff000017454ff28	1.0000013870448559
74	0x3fe0000040c63c5c	0.5000001206516447
75	0x3ff000024552815b	1.0000021655942735
76	0x3fe000003f34d5a5	0.5000001177310663
77	0x3ff00001b9027303	1.0000016428886631
78	0x3fe000003043feee	0.5000000899017019
79	0x3ff00000ba213e4f	1.0000006933877505
80	0x3fe000001ebc732e	0.5000000572505081
81	0x3fefffffee4590d9	0.9999999669785452
82	0x3fe000001000f8dc	0.5000000298093954
83	0x3fefffff553239da	0.9999996818531216
84	0x3fe0000005d63911	0.5000000108719026
85	0x3fefffff72180303	0.9999997356790974
86	0x3fdffffffffcde10	0.4999999999886038
87	0x3fefffffd3b8bce4	0.9999999175251131
88	0x3fdffffffac952df	0.49999999514447596
89	0x3ff00000117a7b4a	1.000000065112277
90	0x3fdffffff9a51709	0.49999999408133583
91	0x3ff000001fbfd2f5	1.0000001182754066
92	0x3fdffffffa918bae	0.49999999494155645
93	0x3ff00000199f2ba0	1.0000000954484918
94	0x3fdffffffc3429b5	0.4999999964644773
95	0x3ff000000bcc7bda	1.0000000439538241
96	0x3fdffffffdc9930f	0.49999999793935584
97	0x3ff0000000777f22	1.0000000017389046
98	0x3fdffffffefdc095	0.49999999906050024
99	0x3feffffff712b01a	0.999999983372166
100	0x3fdfffffffc12f9b	0.49999999977148385
101	0x3feffffff7ca1af3	0.999999984706703
102	0x3fe0000000132fc5	0.5000000001396009
103	0x3feffffffcf9096a	0.9999999943614004
104	0x3fe00000002564ed	0.5000000002720789
105	0x3ff0000000c77d8e	1.000000002902968
106	0x3fe000000025139a	0.5000000002697675
107	0x3ff0000001b81608	1.000000006404095
108	0x3fe00000001c949b	0.5000000002079504
109	0x3ff00000017a6c25	1.0000000055067713
110	0x3fe0000000125b55	0.500000000133563
111	0x3ff0000000bc77da	1.0000000027425728
112	0x3fe000000009aadc	0.5000000000703397
113	0x3ff0000000152cd8	1.0000000003081393
114	0x3fe0000000039e8e	0.5000000000263343
115	0x3fefffffff8aefb0	0.9999999991482493
116	0x3fe0000000001c43	0.5000000000008032
117	0x3fefffffff87a38b	0.9999999991242573
118	0x3fdffffffffd0bb5	0.49999999998925243
119	0x3fefffffffcd072f	0.9999999996291303
120	0x3fdffffffffc4c27	0.4999999999865303
121	0x3ff0000000082dcd	1.0000000001190188
122	0x3fdffffffffccc6d	0.49999999998835315
123	0x3ff0000000179acb	1.000000000343493
124	0x3fdffffffffdbe3b	0.4999999999917894
125	0x3ff000000015af44	1.000000000315553
126	0x3fdffffffffeac1a	0.49999999999516975
127	0x3ff00000000b9aca	1.0000000001688698
128	0x3fdfffffffff62a1	0.4999999999977636
129	0x3ff0000000020794	1.0000000000295346
130	0x3fdfffffffffd760	0.4999999999994227
131	0x3feffffffffa274b	0.999999999957461
132	0x3fe0000000000a42	0.5000000000002915
133	0x3feffffffff92d99	0.9999999999503643
134	0x3fe0000000001590	0.5000000000006128
135	0x3feffffffffcbdce	0.9999999999762907
136	0x3fe00000000015bd	0.5000000000006178
137	0x3ff00000000048ca	1.0000000000041376
138	0x3fe00000000010eb	0.5000000000004808
139	0x3ff00000000140ba	1.0000000000182312
140	0x3fe0000000000af6	0.5000000000003115
141	0x3ff0000000013bfb	1.0000000000179614
142	0x3fe00000000005d6	0.5000000000001659
143	0x3ff000000000b4d7	1.0000000000102796
144	0x3fe000000000023e	0.5000000000000637
145	0x3ff0000000002995	1.0000000000023637
146	0x3fe0000000000022	0.5000000000000038
147	0x3fefffffffffb7bc	0.9999999999979461
148	0x3fdffffffffffe55	0.4999999999999763
149	0x3fefffffffff9e0e	0.9999999999972162
150	0x3fdffffffffffdd9	0.4999999999999694
151	0x3fefffffffffcbd9	0.9999999999985177
152	0x3fdffffffffffe1c	0.49999999999997313
153	0x3ff0000000000185	1.0000000000000864
154	0x3fdffffffffffea8	0.4999999999999809
155	0x3ff00000000010d3	1.0000000000009563
156	0x3fdfffffffffff33	0.4999999999999886
157	0x3ff00000000011de	1.0000000000010156
158	0x3fdfffffffffffa0	0.49999999999999467
159	0x3ff0000000000ae6	1.0000000000006195
160	0x3fdfffffffffffe6	0.49999999999999856
161	0x3ff000000000030c	1.0000000000001732
162	0x3fe0000000000006	0.5000000000000007
163	0x3feffffffffffcae	0.9999999999999056
164	0x3fe000000000000d	0.5000000000000014
165	0x3feffffffffffa93	0.9999999999998458
166	0x3fe000000000000d	0.5000000000000014
167	0x3feffffffffffcce	0.9999999999999092
168	0x3fe000000000000b	0.5000000000000012
169	0x3fefffffffffffe2	0.9999999999999967
170	0x3fe0000000000008	0.5000000000000009
171	0x3ff00000000000df	1.0000000000000495
172	0x3fe0000000000004	0.5000000000000004
173	0x3ff0000000000102	1.0000000000000573
174	0x3fe0000000000002	0.5000000000000002
175	0x3ff00000000000a8	1.0000000000000373
176	0x3fe0000000000000	0.5
177	0x3ff0000000000037	1.0000000000000122
178	0x3fdfffffffffffff	0.49999999999999994
179	0x3fefffffffffffdc	0.999999999999996
180	0x3fdfffffffffffff	0.49999999999999994
181	0x3fefffffffffffb4	0.9999999999999916
182	0x3fdfffffffffffff	0.49999999999999994
183	0x3fefffffffffffcf	0.9999999999999946
184	0x3fe0000000000000	0.5
185	0x3feffffffffffffb	0.9999999999999994
186	0x3fe0000000000000	0.5
187	0x3ff000000000000d	1.0000000000000029
188	0x3fe0000000000000	0.5
189	0x3ff0000000000010	1.0000000000000036
190	0x3fe0000000000000	0.5
191	0x3ff000000000000b	1.0000000000000024
192	0x3fe0000000000000	0.5
193	0x3ff0000000000005	1.000000000000001
194	0x3fe0000000000000	0.5
195	0x3ff0000000000000	1.0
196	0x3fe0000000000000	0.5
197	0x3feffffffffffffe	0.9999999999999998
198	0x3fe0000000000000	0.5
199	0x3fefffffffffffff	0.9999999999999999
200	0x3fe0000000000000	0.5
201	0x3ff0000000000000	1.0
202	0x0000000000000000	0.0
203	0x0000000000000000	0.0
204	0xbfb919fa674d2667	-0.09805264493948017
205	0x3fbe7dd8e2909a2c	0.11910777598732442
206	0xbfcfa0bb8228e396	-0.24709266524749002
207	0x3fd335af099da8cf	0.30015159548805753
208	0xbfd8a8062d2644f4	-0.38525537881021354
209	0x3fddf36c6b960670	0.46798239237259676
210	0xbfdf323d6a43dcf1	-0.48744140031290245
211	0x3fe2f293035d4e16	0.5921111169540747
212	0xbfe19e59b4ddec8e	-0.5505798847729169
213	0x3fe566df034ff21b	0.6688075127308964
214	0xbfe2a0945c861270	-0.5821019942382701
215	0x3fe6a08cf16dc5ec	0.7070984568983341
216	0xbfe2f54772e94e7b	-0.5924412960398081
217	0x3fe707701a70846a	0.7196579471966633
218	0xbfe2e99d518e465a	-0.5910173981557805
219	0x3fe6f944c0a3ae3b	0.7179282915580595
220	0xbfe2b5aa09bab420	-0.5846758070016485
221	0x3fe6ba29adb48127	0.7102249519994402
222	0xbfe27b7abd336337	-0.5775731749846277
223	0x3fe6737bde571be2	0.7015971510489829
224	0xbfe24ba11659bf94	-0.5717320858511692
225	0x3fe6395bd02fef77	0.6945017877728635
226	0xbfe22b29e2a255a8	-0.5677689958999297
227	0x3fe611ebec29bc63	0.6896876919326015
228	0xbfe218dd65a6e7b7	-0.5655352578535177
229	0x3fe5fbb1853c7e0e	0.686974296786447
230	0xbfe210ff93a67055	-0.5645749934951804
231	0x3fe5f2234440a1d8	0.6858078320556684
232	0xbfe20f8cdfed8ffd	-0.5643982289880111
233	0x3fe5f060f66f8180	0.6855931103892061
234	0xbfe21149708613b5	-0.564610214016844
235	0x3fe5f27cfd7bd713	0.6858506155828955
236	0xbfe2140ce5052a11	-0.564947554879213
237	0x3fe5f5d85befde9a	0.686260394634661
238	0xbfe216a6029fe003	-0.5652647067317961
239	0x3fe5f9004c07f9a8	0.6866456494315587
240	0xbfe2189665e43253	-0.5655014028612392
241	0x3fe5fb5b468aa137	0.6869331720127211
242	0xbfe219cbcafc8cb8	-0.5656489338474762
243	0x3fe5fcd31b940777	0.6871123827588538
244	0xbfe21a683259b386	-0.5657235129743732
245	0x3fe5fd9118b63529	0.6872029764796582
246	0xbfe21a9d39b48de7	-0.5657487990433169
247	0x3fe5fdd183246c6d	0.6872336923000951
248	0xbfe21a9844c65ec1	-0.5657464354762497
249	0x3fe5fdcb7dbb119b	0.6872308211973633
250	0xbfe21a7a9b1f2a65	-0.5657322911950585
251	0x3fe5fda7757862ef	0.6872136396733292
252	0xbfe21a589ff64005	-0.5657160877472057
253	0x3fe5fd7e2e507da0	0.6871939568117575
254	0xbfe21a3c60b19c63	-0.5657026184607158
255	0x3fe5fd5bde4144b8	0.68717759522601

unsafe_action f8 [1, 2]
0	0x3fe0000000000000	0.5
1	0x3ff8000000000000	1.5

safe_set_A f8 [1, 9, 2]
0	0x3ff0000000000000	1.0
1	0x0000000000000000	0.0
2	0x0000000000000000	0.0
3	0x3ff0000000000000	1.0
4	0xbff0000000000000	-1.0
5	0x8000000000000000	-0.0
6	0x8000000000000000	-0.0
7	0xbff0000000000000	-1.0
8	0xbff0000000000000	-1.0
9	0x8000000000000000	-0.0
10	0x8000000000000000	-0.0
11	0xbff0000000000000	-1.0
12	0x3ff0000000000000	1.0
13	0x0000000000000000	0.0
14	0x0000000000000000	0.0
15	0x3ff0000000000000	1.0
16	0x0000000000000000	0.0
17	0x0000000000000000	0.0

safe_set_b f8 [1, 9]
0	0x402c2f622069c7ac	14.092545521652788
1	0x4026a7b1180dd12c	11.327522994696288
2	0x3ffe84eefcb1c29c	1.9074544783472112
3	0x4012b09dcfe45da8	4.672477005303712
4	0x3ff0000000000000	1.0
5	0x3ff0000000000000	1.0
6	0x3ff0000000000000	1.0
7	0x3ff0000000000000	1.0
8	0x7ff0000000000000	inf

trajectory f8 [404, 1, 2]
0	0x0000000000000000	0.0
1	0x0000000000000000	0.0
2	0x3fb62fc962fc9632	0.0866666666666667
3	0x3fd0a3d70a3d70a6	0.2600000000000001
4	0x3fcbf487fcb923a5	0.21840000000000007
5	0x3fe4f765fd8adaba	0.6552
6	0x3fd5cb10ab78a754	0.3405191111111112
7	0x3ff0584c809a7d7d	1.0215573333333332
8	0x3fdb92de815eb587	0.43083918222222234
9	0x3ff376613e97a3ae	1.2164013333333332
10	0x3fdf253516c297bb	0.48664595816296313
11	0x3ff39b9868154a85	1.225487143111111
12	0x3fe076d8d2de8a7d	0.5145076864758519
13	0x3ff222b7bdee78f4	1.1334760112
14	0x3fe0c1b60c3c3c14	0.5236463774652997
15	0x3ff086e4718eb4ca	1.032932704528593
16	0x3fe0b766ab8f0004	0.5223878241304196
17	0x3fef2f0329a3a758	0.974488812758163
18	0x3fe0897bb75f695c	0.5167826253412318
19	0x3feed235e508f18a	0.9631604646051966
20	0x3fe0560e13505e0f	0.5105047585702226
21	0x3fef53b1e3272ca8	0.9789666592199824
22	0x3fe02bc2ddcb5b0b	0.5053419429703764
23	0x3feffa4af4d90368	0.9993033201391031
24	0x3fe00f10c522780a	0.5018390512739199
25	0x3ff02deb5c88367f	1.0112107862982211
26	0x3fdffdc87fd0d115	0.4998646972847081
27	0x3ff033f93898d4fd	1.01268884762004
28	0x3fdfefe08d769589	0.4990159398533583
29	0x3ff020cbaf5a48ed	1.0080067491258504
30	0x3fdfed513dbbdf1f	0.49885970143030706
31	0x3ff009afe05855c8	1.0023649943808426
32	0x3fdff0631fc5e5d9	0.499047070530279
33	0x3feff68a54c66c8d	0.9988452583087494
34	0x3fdff545bbbd838f	0.499345239009977
35	0x3fefef55ad532038	0.9979656586883783
36	0x3fdff9dd7f2bbf9a	0.49962556284935433
37	0x3feff58b090f8a53	0.9987235238043674
38	0x3fdffd4afd78de9d	0.4998347735704359
39	0x3feffecbb372bcf3	0.9998529915664264
40	0x3fdfff6dece6b837	0.49996517310035266
41	0x3ff00256fcbd68b4	1.0005712387706298
42	0x3fe0004134668fb3	0.5000310920190628
43	0x3ff002e77b6ab5cb	1.0007090397806333
44	0x3fe00070135ee9f7	0.5000534418425663
45	0x3ff001f32c6444a0	1.0004760488557523
46	0x3fe0006bb1ca378e	0.5000513527354415
47	0x3ff000a9d0db30fe	1.000161949009509
48	0x3fe0005179eb7f6c	0.5000388509033491
49	0x3fefff9b82edffb3	0.9999520833225602
50	0x3fe0003370ea7567	0.5000245290172359
51	0x3fefff171849195e	0.9998889421774881
52	0x3fe0001a7959afea	0.5000126237987363
53	0x3fefff5fbb0ab382	0.9999235776100337
54	0x3fe0000963cf6ab2	0.5000044774454493
55	0x3fefffe2005fb912	0.9999856955817299
56	0x3fdfffff54efd8fb	0.4999998406850776
57	0x3ff0001de793e91d	1.0000285192496172
58	0x3fdffff6d24f33ec	0.49999781168008783
59	0x3ff000293eaf6bd9	1.0000393341676868
60	0x3fdffff5198ebb8f	0.4999974011979526
61	0x3ff0001d6fd9cbef	1.0000280732317568
62	0x3fdffff6ca0e4687	0.499997803993303
63	0x3ff0000b3fed8672	1.0000107285672155
64	0x3fdffff99dfc2d88	0.4999984782050082
65	0x3feffffc7ee3bbba	0.9999983290016339
66	0x3fdffffc5092acf5	0.49999912136509234
67	0x3feffff371e66e73	0.9999940132724546
68	0x3fdffffe58b347f3	0.49999960577144903
69	0x3feffff6856b0664	0.9999954801389319
70	0x3fdfffff9fb6c20d	0.49999991032658003
71	0x3feffffd9c501b38	0.9999988606440189
72	0x3fe0000023852c52	0.5000000661615422
73	0x3ff000017454ff28	1.0000013870448559
74	0x3fe0000040c63c5c	0.5000001206516447
75	0x3ff000024552815b	1.0000021655942735
76	0x3fe000003f34d5a5	0.5000001177310663
77	0x3ff00001b9027303	1.0000016428886631
78	0x3fe000003043feee	0.5000000899017019
79	0x3ff00000ba213e4f	1.0000006933877505
80	0x3fe000001ebc732e	0.5000000572505081
81	0x3fefffffee4590d9	0.9999999669785452
82	0x3fe000001000f8dc	0.5000000298093954
83	0x3fefffff553239da	0.9999996818531216
84	0x3fe0000005d63911	0.5000000108719026
85	0x3fefffff72180303	0.9999997356790974
86	0x3fdffffffffcde10	0.4999999999886038
87	0x3fefffffd3b8bce4	0.9999999175251131
88	0x3fdffffffac952df	0.49999999514447596
89	0x3ff00000117a7b4a	1.000000065112277
90	0x3fdffffff9a51709	0.49999999408133583
91	0x3ff000001fbfd2f5	1.0000001182754066
92	0x3fdffffffa918bae	0.49999999494155645
93	0x3ff00000199f2ba0	1.0000000954484918
94	0x3fdffffffc3429b5	0.4999999964644773
95	0x3ff000000bcc7bda	1.0000000439538241
96	0x3fdffffffdc9930f	0.49999999793935584
97	0x3ff0000000777f22	1.0000000017389046
98	0x3fdffffffefdc095	0.49999999906050024
99	0x3feffffff712b01a	0.999999983372166
100	0x3fdfffffffc12f9b	0.49999999977148385
101	0x3feffffff7ca1af3	0.999999984706703
102	0x3fe0000000132fc5	0.5000000001396009
103	0x3feffffffcf9096a	0.9999999943614004
104	0x3fe00000002564ed	0.5000000002720789
105	0x3ff0000000c77d8e	1.000000002902968
106	0x3fe000000025139a	0.5000000002697675
107	0x3ff0000001b81608	1.000000006404095
108	0x3fe00000001c949b	0.5000000002079504
109	0x3ff00000017a6c25	1.0000000055067713
110	0x3fe0000000125b55	0.500000000133563
111	0x3ff0000000bc77da	1.0000000027425728
112	0x3fe000000009aadc	0.5000000000703397
113	0x3ff0000000152cd8	1.0000000003081393
114	0x3fe0000000039e8e	0.5000000000263343
115	0x3fefffffff8aefb0	0.9999999991482493
116	0x3fe0000000001c43	0.5000000000008032
117	0x3fefffffff87a38b	0.9999999991242573
118	0x3fdffffffffd0bb5	0.49999999998925243
119	0x3fefffffffcd072f	0.9999999996291303
120	0x3fdffffffffc4c27	0.4999999999865303
121	0x3ff0000000082dcd	1.0000000001190188
122	0x3fdffffffffccc6d	0.49999999998835315
123	0x3ff0000000179acb	1.000000000343493
124	0x3fdffffffffdbe3b	0.4999999999917894
125	0x3ff000000015af44	1.000000000315553
126	0x3fdffffffffeac1a	0.49999999999516975
127	0x3ff00000000b9aca	1.0000000001688698
128	0x3fdfffffffff62a1	0.4999999999977636
129	0x3ff0000000020794	1.0000000000295346
130	0x3fdfffffffffd760	0.4999999999994227
131	0x3feffffffffa274b	0.999999999957461
132	0x3fe0000000000a42	0.5000000000002915
133	0x3feffffffff92d99	0.9999999999503643
134	0x3fe0000000001590	0.5000000000006128
135	0x3feffffffffcbdce	0.9999999999762907
136	0x3fe00000000015bd	0.5000000000006178
137	0x3ff00000000048ca	1.0000000000041376
138	0x3fe00000000010eb	0.5000000000004808
139	0x3ff00000000140ba	1.0000000000182312
140	0x3fe0000000000af6	0.5000000000003115
141	0x3ff0000000013bfb	1.0000000000179614
142	0x3fe00000000005d6	0.5000000000001659
143	0x3ff000000000b4d7	1.0000000000102796
144	0x3fe000000000023e	0.5000000000000637
145	0x3ff0000000002995	1.0000000000023637
146	0x3fe0000000000022	0.5000000000000038
147	0x3fefffffffffb7bc	0.9999999999979461
148	0x3fdffffffffffe55	0.4999999999999763
149	0x3fefffffffff9e0e	0.9999999999972162
150	0x3fdffffffffffdd9	0.4999999999999694
151	0x3fefffffffffcbd9	0.9999999999985177
152	0x3fdffffffffffe1c	0.49999999999997313
153	0x3ff0000000000185	1.0000000000000864
154	0x3fdffffffffffea8	0.4999999999999809
155	0x3ff00000000010d3	1.0000000000009563
156	0x3fdfffffffffff33	0.4999999999999886
157	0x3ff00000000011de	1.0000000000010156
158	0x3fdfffffffffffa0	0.49999999999999467
159	0x3ff0000000000ae6	1.0000000000006195
160	0x3fdfffffffffffe6	0.49999999999999856
161	0x3ff000000000030c	1.0000000000001732
162	0x3fe0000000000006	0.5000000000000007
163	0x3feffffffffffcae	0.9999999999999056
164	0x3fe000000000000d	0.5000000000000014
165	0x3feffffffffffa93	0.9999999999998458
166	0x3fe000000000000d	0.5000000000000014
167	0x3feffffffffffcce	0.9999999999999092
168	0x3fe000000000000b	0.5000000000000012
169	0x3fefffffffffffe2	0.9999999999999967
170	0x3fe0000000000008	0.5000000000000009
171	0x3ff00000000000df	1.0000000000000495
172	0x3fe0000000000004	0.5000000000000004
173	0x3ff0000000000102	1.0000000000000573
174	0x3fe0000000000002	0.5000000000000002
175	0x3ff00000000000a8	1.0000000000000373
176	0x3fe0000000000000	0.5
177	0x3ff0000000000037	1.0000000000000122
178	0x3fdfffffffffffff	0.49999999999999994
179	0x3fefffffffffffdc	0.999999999999996
180	0x3fdfffffffffffff	0.49999999999999994
181	0x3fefffffffffffb4	0.9999999999999916
182	0x3fdfffffffffffff	0.49999999999999994
183	0x3fefffffffffffcf	0.9999999999999946
184	0x3fe0000000000000	0.5
185	0x3feffffffffffffb	0.9999999999999994
186	0x3fe0000000000000	0.5
187	0x3ff000000000000d	1.0000000000000029
188	0x3fe0000000000000	0.5
189	0x3ff0000000000010	1.0000000000000036
190	0x3fe0000000000000	0.5
191	0x3ff000000000000b	1.0000000000000024
192	0x3fe0000000000000	0.5
193	0x3ff0000000000005	1.000000000000001
194	0x3fe0000000000000	0.5
195	0x3ff0000000000000	1.0
196	0x3fe0000000000000	0.5
197	0x3feffffffffffffe	0.9999999999999998
198	0x3fe0000000000000	0.5
199	0x3fefffffffffffff	0.9999999999999999
200	0x3fe0000000000000	0.5
201	0x3ff0000000000000	1.0
202	0x0000000000000000	0.0
203	0x0000000000000000	0.0
204	0xbfb919fa674d2667	-0.09805264493948017
205	0x3fbe7dd8e2909a2c	0.11910777598732442
206	0xbfcfa0bb8228e396	-0.24709266524749002
207	0x3fd335af099da8cf	0.30015159548805753
208	0xbfd8a8062d2644f4	-0.38525537881021354
209	0x3fddf36c6b960670	0.46798239237259676
210	0xbfdf323d6a43dcf1	-0.48744140031290245
211	0x3fe2f293035d4e16	0.5921111169540747
212	0xbfe19e59b4ddec8e	-0.5505798847729169
213	0x3fe566df034ff21b	0.6688075127308964
214	0xbfe2a0945c861270	-0.5821019942382701
215	0x3fe6a08cf16dc5ec	0.7070984568983341
216	0xbfe2f54772e94e7b	-0.5924412960398081
217	0x3fe707701a70846a	0.7196579471966633
218	0xbfe2e99d518e465a	-0.5910173981557805
219	0x3fe6f944c0a3ae3b	0.7179282915580595
220	0xbfe2b5aa09bab420	-0.5846758070016485
221	0x3fe6ba29adb48127	0.7102249519994402
222	0xbfe27b7abd336337	-0.5775731749846277
223	0x3fe6737bde571be2	0.7015971510489829
224	0xbfe24ba11659bf94	-0.5717320858511692
225	0x3fe6395bd02fef77	0.6945017877728635
226	0xbfe22b29e2a255a8	-0.5677689958999297
227	0x3fe611ebec29bc63	0.6896876919326015
228	0xbfe218dd65a6e7b7	-0.5655352578535177
229	0x3fe5fbb1853c7e0e	0.686974296786447
230	0xbfe210ff93a67055	-0.5645749934951804
231	0x3fe5f2234440a1d8	0.6858078320556684
232	0xbfe20f8cdfed8ffd	-0.5643982289880111
233	0x3fe5f060f66f8180	0.6855931103892061
234	0xbfe21149708613b5	-0.564610214016844
235	0x3fe5f27cfd7bd713	0.6858506155828955
236	0xbfe2140ce5052a11	-0.564947554879213
237	0x3fe5f5d85befde9a	0.686260394634661
238	0xbfe216a6029fe003	-0.5652647067317961
239	0x3fe5f9004c07f9a8	0.6866456494315587
240	0xbfe2189665e43253	-0.5655014028612392
241	0x3fe5fb5b468aa137	0.6869331720127211
242	0xbfe219cbcafc8cb8	-0.5656489338474762
243	0x3fe5fcd31b940777	0.6871123827588538
244	0xbfe21a683259b386	-0.5657235129743732
245	0x3fe5fd9118b63529	0.6872029764796582
246	0xbfe21a9d39b48de7	-0.5657487990433169
247	0x3fe5fdd183246c6d	0.6872336923000951
248	0xbfe21a9844c65ec1	-0.5657464354762497
249	0x3fe5fdcb7dbb119b	0.6872308211973633
250	0xbfe21a7a9b1f2a65	-0.5657322911950585
251	0x3fe5fda7757862ef	0.6872136396733292
252	0xbfe21a589ff64005	-0.5657160877472057
253	0x3fe5fd7e2e507da0	0.6871939568117575
254	0xbfe21a3c60b19c63	-0.5657026184607158
255	0x3fe5fd5bde4144b8	0.68717759522601

unsafe_action f8 [1, 2]
0	0x3fe0000000000000	0.5
1	0x3ff8000000000000	1.5

safe_set_A f8 [1, 9, 2]
0	0x3ff0000000000000	1.0
1	0x0000000000000000	0.0
2	0x0000000000000000	0.0
3	0x3ff0000000000000	1.0
4	0xbff0000000000000	-1.0
5	0x8000000000000000	-0.0
6	0x8000000000000000	-0.0
7	0xbff0000000000000	-1.0
8	0xbff0000000000000	-1.0
9	0x8000000000000000	-0.0
10	0x8000000000000000	-0.0
11	0xbff0000000000000	-1.0
12	0x3ff0000000000000	1.0
13	0x0000000000000000	0.0
14	0x0000000000000000	0.0
15	0x3ff0000000000000	1.0
16	0x0000000000000000	0.0
17	0x0000000000000000	0.0

safe_set_b f8 [1, 9]
0	0x402c4c80e55ba2b8	14.149420897899617
1	0x4026981b19029cbb	11.297081739014507
2	0x3ffd9bf8d522ea44	1.850579102100384
3	0x4012cfc9cdfac68a	4.702918260985493
4	0x3ff0000000000000	1.0
5	0x3ff0000000000000	1.0
6	0x3ff0000000000000	1.0
7	0x3ff0000000000000	1.0
8	0x7ff0000000000000	inf
